<?xml version="1.0" ?>
<net name="ResMobNet_v4 (LReLU) with single SSD head" version="10">
	<layers>
		<layer id="0" name="data" type="Parameter" version="opset1">
			<data element_type="f16" shape="1,3,320,544"/>
			<output>
				<port id="0" names="data" precision="FP16">
					<dim>1</dim>
					<dim>3</dim>
					<dim>320</dim>
					<dim>544</dim>
				</port>
			</output>
		</layer>
		<layer id="1" name="data_mul_2364324665/EltwiseUnsqueeze24902_const747_const" type="Const" version="opset1">
			<data element_type="f16" offset="0" shape="1,3,1,1" size="6"/>
			<output>
				<port id="0" precision="FP16">
					<dim>1</dim>
					<dim>3</dim>
					<dim>1</dim>
					<dim>1</dim>
				</port>
			</output>
		</layer>
		<layer id="2" name="data/norm/bn/mean/Fused_Mul_" type="Multiply" version="opset1">
			<data auto_broadcast="numpy"/>
			<input>
				<port id="0">
					<dim>1</dim>
					<dim>3</dim>
					<dim>320</dim>
					<dim>544</dim>
				</port>
				<port id="1">
					<dim>1</dim>
					<dim>3</dim>
					<dim>1</dim>
					<dim>1</dim>
				</port>
			</input>
			<output>
				<port id="2" precision="FP16">
					<dim>1</dim>
					<dim>3</dim>
					<dim>320</dim>
					<dim>544</dim>
				</port>
			</output>
		</layer>
		<layer id="3" name="data_add_2364524666/EltwiseUnsqueeze24906_const749_const" type="Const" version="opset1">
			<data element_type="f16" offset="6" shape="1,3,1,1" size="6"/>
			<output>
				<port id="0" precision="FP16">
					<dim>1</dim>
					<dim>3</dim>
					<dim>1</dim>
					<dim>1</dim>
				</port>
			</output>
		</layer>
		<layer id="4" name="data/norm/bn/variance/Fused_Add_" type="Add" version="opset1">
			<data auto_broadcast="numpy"/>
			<input>
				<port id="0">
					<dim>1</dim>
					<dim>3</dim>
					<dim>320</dim>
					<dim>544</dim>
				</port>
				<port id="1">
					<dim>1</dim>
					<dim>3</dim>
					<dim>1</dim>
					<dim>1</dim>
				</port>
			</input>
			<output>
				<port id="2" names="data/norm/bn" precision="FP16">
					<dim>1</dim>
					<dim>3</dim>
					<dim>320</dim>
					<dim>544</dim>
				</port>
			</output>
		</layer>
		<layer id="5" name="27642768_const" type="Const" version="opset1">
			<data element_type="f16" offset="12" shape="" size="2"/>
			<output>
				<port id="0" precision="FP16"/>
			</output>
		</layer>
		<layer id="6" name="27652769_const" type="Const" version="opset1">
			<data element_type="f16" offset="14" shape="" size="2"/>
			<output>
				<port id="0" precision="FP16"/>
			</output>
		</layer>
		<layer id="7" name="27662770_const" type="Const" version="opset1">
			<data element_type="f16" offset="12" shape="" size="2"/>
			<output>
				<port id="0" precision="FP16"/>
			</output>
		</layer>
		<layer id="8" name="27672771_const" type="Const" version="opset1">
			<data element_type="f16" offset="14" shape="" size="2"/>
			<output>
				<port id="0" precision="FP16"/>
			</output>
		</layer>
		<layer id="9" name="init_block1/dim_inc/conv/fq_input_0" type="FakeQuantize" version="opset1">
			<data auto_broadcast="numpy" levels="256"/>
			<input>
				<port id="0">
					<dim>1</dim>
					<dim>3</dim>
					<dim>320</dim>
					<dim>544</dim>
				</port>
				<port id="1"/>
				<port id="2"/>
				<port id="3"/>
				<port id="4"/>
			</input>
			<output>
				<port id="5" precision="FP16">
					<dim>1</dim>
					<dim>3</dim>
					<dim>320</dim>
					<dim>544</dim>
				</port>
			</output>
		</layer>
		<layer id="10" name="init_block1/dim_inc/bn/mean/Fused_Mul_2615226154_const75110080/quantized12064_const" type="Const" version="opset1">
			<data element_type="i8" offset="16" shape="32,3,3,3" size="864"/>
			<output>
				<port id="0" precision="I8">
					<dim>32</dim>
					<dim>3</dim>
					<dim>3</dim>
					<dim>3</dim>
				</port>
			</output>
		</layer>
		<layer id="11" name="init_block1/dim_inc/bn/mean/Fused_Mul_2615226154_const75110080/quantized/to_f16" type="Convert" version="opset1">
			<data destination_type="f16"/>
			<input>
				<port id="0">
					<dim>32</dim>
					<dim>3</dim>
					<dim>3</dim>
					<dim>3</dim>
				</port>
			</input>
			<output>
				<port id="1" precision="FP16">
					<dim>32</dim>
					<dim>3</dim>
					<dim>3</dim>
					<dim>3</dim>
				</port>
			</output>
		</layer>
		<layer id="12" name="init_block1/dim_inc/conv/fq_weights_1/zero_point12077_const" type="Const" version="opset1">
			<data element_type="f16" offset="880" shape="32,1,1,1" size="64"/>
			<output>
				<port id="0" precision="FP16">
					<dim>32</dim>
					<dim>1</dim>
					<dim>1</dim>
					<dim>1</dim>
				</port>
			</output>
		</layer>
		<layer id="13" name="init_block1/dim_inc/conv/fq_weights_1/minus_zp" type="Subtract" version="opset1">
			<data auto_broadcast="numpy"/>
			<input>
				<port id="0">
					<dim>32</dim>
					<dim>3</dim>
					<dim>3</dim>
					<dim>3</dim>
				</port>
				<port id="1">
					<dim>32</dim>
					<dim>1</dim>
					<dim>1</dim>
					<dim>1</dim>
				</port>
			</input>
			<output>
				<port id="2" precision="FP16">
					<dim>32</dim>
					<dim>3</dim>
					<dim>3</dim>
					<dim>3</dim>
				</port>
			</output>
		</layer>
		<layer id="14" name="init_block1/dim_inc/conv/fq_weights_1/scale12072_const" type="Const" version="opset1">
			<data element_type="f16" offset="944" shape="32,1,1,1" size="64"/>
			<output>
				<port id="0" precision="FP16">
					<dim>32</dim>
					<dim>1</dim>
					<dim>1</dim>
					<dim>1</dim>
				</port>
			</output>
		</layer>
		<layer id="15" name="init_block1/dim_inc/conv/fq_weights_1/mulpiply_by_scale" type="Multiply" version="opset1">
			<data auto_broadcast="numpy"/>
			<input>
				<port id="0">
					<dim>32</dim>
					<dim>3</dim>
					<dim>3</dim>
					<dim>3</dim>
				</port>
				<port id="1">
					<dim>32</dim>
					<dim>1</dim>
					<dim>1</dim>
					<dim>1</dim>
				</port>
			</input>
			<output>
				<port id="2" precision="FP16">
					<dim>32</dim>
					<dim>3</dim>
					<dim>3</dim>
					<dim>3</dim>
				</port>
			</output>
		</layer>
		<layer id="16" name="init_block1/dim_inc/conv" type="Convolution" version="opset1">
			<data auto_pad="explicit" dilations="1,1" pads_begin="1,1" pads_end="1,1" strides="2,2"/>
			<input>
				<port id="0">
					<dim>1</dim>
					<dim>3</dim>
					<dim>320</dim>
					<dim>544</dim>
				</port>
				<port id="1">
					<dim>32</dim>
					<dim>3</dim>
					<dim>3</dim>
					<dim>3</dim>
				</port>
			</input>
			<output>
				<port id="2" precision="FP16">
					<dim>1</dim>
					<dim>32</dim>
					<dim>160</dim>
					<dim>272</dim>
				</port>
			</output>
		</layer>
		<layer id="17" name="data_add_236482365324668/EltwiseUnsqueeze24914_const753_const" type="Const" version="opset1">
			<data element_type="f16" offset="1008" shape="1,32,1,1" size="64"/>
			<output>
				<port id="0" precision="FP16">
					<dim>1</dim>
					<dim>32</dim>
					<dim>1</dim>
					<dim>1</dim>
				</port>
			</output>
		</layer>
		<layer id="18" name="init_block1/dim_inc/bn/variance/Fused_Add_" type="Add" version="opset1">
			<data auto_broadcast="numpy"/>
			<input>
				<port id="0">
					<dim>1</dim>
					<dim>32</dim>
					<dim>160</dim>
					<dim>272</dim>
				</port>
				<port id="1">
					<dim>1</dim>
					<dim>32</dim>
					<dim>1</dim>
					<dim>1</dim>
				</port>
			</input>
			<output>
				<port id="2" names="init_block1/dim_inc/conv" precision="FP16">
					<dim>1</dim>
					<dim>32</dim>
					<dim>160</dim>
					<dim>272</dim>
				</port>
			</output>
		</layer>
		<layer id="19" name="init_block1/dim_inc/fn" type="ReLU" version="opset1">
			<input>
				<port id="0">
					<dim>1</dim>
					<dim>32</dim>
					<dim>160</dim>
					<dim>272</dim>
				</port>
			</input>
			<output>
				<port id="1" names="init_block1/dim_inc/conv" precision="FP16">
					<dim>1</dim>
					<dim>32</dim>
					<dim>160</dim>
					<dim>272</dim>
				</port>
			</output>
		</layer>
		<layer id="20" name="51645168_const" type="Const" version="opset1">
			<data element_type="f16" offset="1072" shape="" size="2"/>
			<output>
				<port id="0" precision="FP16"/>
			</output>
		</layer>
		<layer id="21" name="51655169_const" type="Const" version="opset1">
			<data element_type="f16" offset="1074" shape="" size="2"/>
			<output>
				<port id="0" precision="FP16"/>
			</output>
		</layer>
		<layer id="22" name="51665170_const" type="Const" version="opset1">
			<data element_type="f16" offset="1072" shape="" size="2"/>
			<output>
				<port id="0" precision="FP16"/>
			</output>
		</layer>
		<layer id="23" name="51675171_const" type="Const" version="opset1">
			<data element_type="f16" offset="1074" shape="" size="2"/>
			<output>
				<port id="0" precision="FP16"/>
			</output>
		</layer>
		<layer id="24" name="bottleneck1_1/add/fq_input_0" type="FakeQuantize" version="opset1">
			<data auto_broadcast="numpy" levels="256"/>
			<input>
				<port id="0">
					<dim>1</dim>
					<dim>32</dim>
					<dim>160</dim>
					<dim>272</dim>
				</port>
				<port id="1"/>
				<port id="2"/>
				<port id="3"/>
				<port id="4"/>
			</input>
			<output>
				<port id="5" precision="FP16">
					<dim>1</dim>
					<dim>32</dim>
					<dim>160</dim>
					<dim>272</dim>
				</port>
			</output>
		</layer>
		<layer id="25" name="bottleneck1_1/dim_red/bn/mean/Fused_Mul_2615626158_const75610082/quantized12736_const" type="Const" version="opset1">
			<data element_type="i8" offset="1076" shape="8,32,1,1" size="256"/>
			<output>
				<port id="0" precision="I8">
					<dim>8</dim>
					<dim>32</dim>
					<dim>1</dim>
					<dim>1</dim>
				</port>
			</output>
		</layer>
		<layer id="26" name="bottleneck1_1/dim_red/bn/mean/Fused_Mul_2615626158_const75610082/quantized/to_f16" type="Convert" version="opset1">
			<data destination_type="f16"/>
			<input>
				<port id="0">
					<dim>8</dim>
					<dim>32</dim>
					<dim>1</dim>
					<dim>1</dim>
				</port>
			</input>
			<output>
				<port id="1" precision="FP16">
					<dim>8</dim>
					<dim>32</dim>
					<dim>1</dim>
					<dim>1</dim>
				</port>
			</output>
		</layer>
		<layer id="27" name="bottleneck1_1/dim_red/conv/fq_weights_1/zero_point12749_const" type="Const" version="opset1">
			<data element_type="f16" offset="1332" shape="8,1,1,1" size="16"/>
			<output>
				<port id="0" precision="FP16">
					<dim>8</dim>
					<dim>1</dim>
					<dim>1</dim>
					<dim>1</dim>
				</port>
			</output>
		</layer>
		<layer id="28" name="bottleneck1_1/dim_red/conv/fq_weights_1/minus_zp" type="Subtract" version="opset1">
			<data auto_broadcast="numpy"/>
			<input>
				<port id="0">
					<dim>8</dim>
					<dim>32</dim>
					<dim>1</dim>
					<dim>1</dim>
				</port>
				<port id="1">
					<dim>8</dim>
					<dim>1</dim>
					<dim>1</dim>
					<dim>1</dim>
				</port>
			</input>
			<output>
				<port id="2" precision="FP16">
					<dim>8</dim>
					<dim>32</dim>
					<dim>1</dim>
					<dim>1</dim>
				</port>
			</output>
		</layer>
		<layer id="29" name="bottleneck1_1/dim_red/conv/fq_weights_1/scale12744_const" type="Const" version="opset1">
			<data element_type="f16" offset="1348" shape="8,1,1,1" size="16"/>
			<output>
				<port id="0" precision="FP16">
					<dim>8</dim>
					<dim>1</dim>
					<dim>1</dim>
					<dim>1</dim>
				</port>
			</output>
		</layer>
		<layer id="30" name="bottleneck1_1/dim_red/conv/fq_weights_1/mulpiply_by_scale" type="Multiply" version="opset1">
			<data auto_broadcast="numpy"/>
			<input>
				<port id="0">
					<dim>8</dim>
					<dim>32</dim>
					<dim>1</dim>
					<dim>1</dim>
				</port>
				<port id="1">
					<dim>8</dim>
					<dim>1</dim>
					<dim>1</dim>
					<dim>1</dim>
				</port>
			</input>
			<output>
				<port id="2" precision="FP16">
					<dim>8</dim>
					<dim>32</dim>
					<dim>1</dim>
					<dim>1</dim>
				</port>
			</output>
		</layer>
		<layer id="31" name="bottleneck1_1/dim_red/conv" type="Convolution" version="opset1">
			<data auto_pad="explicit" dilations="1,1" pads_begin="0,0" pads_end="0,0" strides="1,1"/>
			<input>
				<port id="0">
					<dim>1</dim>
					<dim>32</dim>
					<dim>160</dim>
					<dim>272</dim>
				</port>
				<port id="1">
					<dim>8</dim>
					<dim>32</dim>
					<dim>1</dim>
					<dim>1</dim>
				</port>
			</input>
			<output>
				<port id="2" precision="FP16">
					<dim>1</dim>
					<dim>8</dim>
					<dim>160</dim>
					<dim>272</dim>
				</port>
			</output>
		</layer>
		<layer id="32" name="data_add_236562366124670/EltwiseUnsqueeze24922_const758_const" type="Const" version="opset1">
			<data element_type="f16" offset="1364" shape="1,8,1,1" size="16"/>
			<output>
				<port id="0" precision="FP16">
					<dim>1</dim>
					<dim>8</dim>
					<dim>1</dim>
					<dim>1</dim>
				</port>
			</output>
		</layer>
		<layer id="33" name="bottleneck1_1/dim_red/bn/variance/Fused_Add_" type="Add" version="opset1">
			<data auto_broadcast="numpy"/>
			<input>
				<port id="0">
					<dim>1</dim>
					<dim>8</dim>
					<dim>160</dim>
					<dim>272</dim>
				</port>
				<port id="1">
					<dim>1</dim>
					<dim>8</dim>
					<dim>1</dim>
					<dim>1</dim>
				</port>
			</input>
			<output>
				<port id="2" names="bottleneck1_1/dim_red/conv" precision="FP16">
					<dim>1</dim>
					<dim>8</dim>
					<dim>160</dim>
					<dim>272</dim>
				</port>
			</output>
		</layer>
		<layer id="34" name="bottleneck1_1/dim_red/fn/Cast_115519_const" type="Const" version="opset1">
			<data element_type="f32" offset="1380" shape="1" size="4"/>
			<output>
				<port id="0" precision="FP32">
					<dim>1</dim>
				</port>
			</output>
		</layer>
		<layer id="35" name="bottleneck1_1/dim_red/fn" type="PReLU" version="opset1">
			<input>
				<port id="0">
					<dim>1</dim>
					<dim>8</dim>
					<dim>160</dim>
					<dim>272</dim>
				</port>
				<port id="1">
					<dim>1</dim>
				</port>
			</input>
			<output>
				<port id="2" names="bottleneck1_1/dim_red/conv" precision="FP16">
					<dim>1</dim>
					<dim>8</dim>
					<dim>160</dim>
					<dim>272</dim>
				</port>
			</output>
		</layer>
		<layer id="36" name="54045408_const" type="Const" version="opset1">
			<data element_type="f16" offset="1384" shape="1,8,1,1" size="16"/>
			<output>
				<port id="0" precision="FP16">
					<dim>1</dim>
					<dim>8</dim>
					<dim>1</dim>
					<dim>1</dim>
				</port>
			</output>
		</layer>
		<layer id="37" name="54055409_const" type="Const" version="opset1">
			<data element_type="f16" offset="1400" shape="1,8,1,1" size="16"/>
			<output>
				<port id="0" precision="FP16">
					<dim>1</dim>
					<dim>8</dim>
					<dim>1</dim>
					<dim>1</dim>
				</port>
			</output>
		</layer>
		<layer id="38" name="54065410_const" type="Const" version="opset1">
			<data element_type="f16" offset="1384" shape="1,8,1,1" size="16"/>
			<output>
				<port id="0" precision="FP16">
					<dim>1</dim>
					<dim>8</dim>
					<dim>1</dim>
					<dim>1</dim>
				</port>
			</output>
		</layer>
		<layer id="39" name="54075411_const" type="Const" version="opset1">
			<data element_type="f16" offset="1400" shape="1,8,1,1" size="16"/>
			<output>
				<port id="0" precision="FP16">
					<dim>1</dim>
					<dim>8</dim>
					<dim>1</dim>
					<dim>1</dim>
				</port>
			</output>
		</layer>
		<layer id="40" name="bottleneck1_1/inner/dw1/conv/fq_input_0" type="FakeQuantize" version="opset1">
			<data auto_broadcast="numpy" levels="256"/>
			<input>
				<port id="0">
					<dim>1</dim>
					<dim>8</dim>
					<dim>160</dim>
					<dim>272</dim>
				</port>
				<port id="1">
					<dim>1</dim>
					<dim>8</dim>
					<dim>1</dim>
					<dim>1</dim>
				</port>
				<port id="2">
					<dim>1</dim>
					<dim>8</dim>
					<dim>1</dim>
					<dim>1</dim>
				</port>
				<port id="3">
					<dim>1</dim>
					<dim>8</dim>
					<dim>1</dim>
					<dim>1</dim>
				</port>
				<port id="4">
					<dim>1</dim>
					<dim>8</dim>
					<dim>1</dim>
					<dim>1</dim>
				</port>
			</input>
			<output>
				<port id="5" precision="FP16">
					<dim>1</dim>
					<dim>8</dim>
					<dim>160</dim>
					<dim>272</dim>
				</port>
			</output>
		</layer>
		<layer id="41" name="3824938252_const76210085/quantized12808_const" type="Const" version="opset1">
			<data element_type="i8" offset="1416" shape="8,1,3,3" size="72"/>
			<output>
				<port id="0" precision="I8">
					<dim>8</dim>
					<dim>1</dim>
					<dim>3</dim>
					<dim>3</dim>
				</port>
			</output>
		</layer>
		<layer id="42" name="3824938252_const76210085/quantized/to_f16" type="Convert" version="opset1">
			<data destination_type="f16"/>
			<input>
				<port id="0">
					<dim>8</dim>
					<dim>1</dim>
					<dim>3</dim>
					<dim>3</dim>
				</port>
			</input>
			<output>
				<port id="1" precision="FP16">
					<dim>8</dim>
					<dim>1</dim>
					<dim>3</dim>
					<dim>3</dim>
				</port>
			</output>
		</layer>
		<layer id="43" name="bottleneck1_1/inner/dw1/conv/fq_weights_1/zero_point12821_const" type="Const" version="opset1">
			<data element_type="f16" offset="1488" shape="8,1,1,1" size="16"/>
			<output>
				<port id="0" precision="FP16">
					<dim>8</dim>
					<dim>1</dim>
					<dim>1</dim>
					<dim>1</dim>
				</port>
			</output>
		</layer>
		<layer id="44" name="bottleneck1_1/inner/dw1/conv/fq_weights_1/minus_zp" type="Subtract" version="opset1">
			<data auto_broadcast="numpy"/>
			<input>
				<port id="0">
					<dim>8</dim>
					<dim>1</dim>
					<dim>3</dim>
					<dim>3</dim>
				</port>
				<port id="1">
					<dim>8</dim>
					<dim>1</dim>
					<dim>1</dim>
					<dim>1</dim>
				</port>
			</input>
			<output>
				<port id="2" precision="FP16">
					<dim>8</dim>
					<dim>1</dim>
					<dim>3</dim>
					<dim>3</dim>
				</port>
			</output>
		</layer>
		<layer id="45" name="bottleneck1_1/inner/dw1/conv/fq_weights_1/scale12816_const" type="Const" version="opset1">
			<data element_type="f16" offset="1504" shape="8,1,1,1" size="16"/>
			<output>
				<port id="0" precision="FP16">
					<dim>8</dim>
					<dim>1</dim>
					<dim>1</dim>
					<dim>1</dim>
				</port>
			</output>
		</layer>
		<layer id="46" name="bottleneck1_1/inner/dw1/conv/fq_weights_1/mulpiply_by_scale" type="Multiply" version="opset1">
			<data auto_broadcast="numpy"/>
			<input>
				<port id="0">
					<dim>8</dim>
					<dim>1</dim>
					<dim>3</dim>
					<dim>3</dim>
				</port>
				<port id="1">
					<dim>8</dim>
					<dim>1</dim>
					<dim>1</dim>
					<dim>1</dim>
				</port>
			</input>
			<output>
				<port id="2" precision="FP16">
					<dim>8</dim>
					<dim>1</dim>
					<dim>3</dim>
					<dim>3</dim>
				</port>
			</output>
		</layer>
		<layer id="47" name="16935/value16937_const" type="Const" version="opset1">
			<data element_type="i64" offset="1520" shape="5" size="40"/>
			<output>
				<port id="0" precision="I64">
					<dim>5</dim>
				</port>
			</output>
		</layer>
		<layer id="48" name="16935" type="Reshape" version="opset1">
			<data special_zero="true"/>
			<input>
				<port id="0">
					<dim>8</dim>
					<dim>1</dim>
					<dim>3</dim>
					<dim>3</dim>
				</port>
				<port id="1">
					<dim>5</dim>
				</port>
			</input>
			<output>
				<port id="2" precision="FP16">
					<dim>8</dim>
					<dim>1</dim>
					<dim>1</dim>
					<dim>3</dim>
					<dim>3</dim>
				</port>
			</output>
		</layer>
		<layer id="49" name="bottleneck1_1/inner/dw1/conv" type="GroupConvolution" version="opset1">
			<data auto_pad="explicit" dilations="1,1" pads_begin="1,1" pads_end="1,1" strides="1,1"/>
			<input>
				<port id="0">
					<dim>1</dim>
					<dim>8</dim>
					<dim>160</dim>
					<dim>272</dim>
				</port>
				<port id="1">
					<dim>8</dim>
					<dim>1</dim>
					<dim>1</dim>
					<dim>3</dim>
					<dim>3</dim>
				</port>
			</input>
			<output>
				<port id="2" precision="FP16">
					<dim>1</dim>
					<dim>8</dim>
					<dim>160</dim>
					<dim>272</dim>
				</port>
			</output>
		</layer>
		<layer id="50" name="data_add_236642366924672/EltwiseUnsqueeze24930_const764_const" type="Const" version="opset1">
			<data element_type="f16" offset="1560" shape="1,8,1,1" size="16"/>
			<output>
				<port id="0" precision="FP16">
					<dim>1</dim>
					<dim>8</dim>
					<dim>1</dim>
					<dim>1</dim>
				</port>
			</output>
		</layer>
		<layer id="51" name="bottleneck1_1/inner/dw1/bn/variance/Fused_Add_" type="Add" version="opset1">
			<data auto_broadcast="numpy"/>
			<input>
				<port id="0">
					<dim>1</dim>
					<dim>8</dim>
					<dim>160</dim>
					<dim>272</dim>
				</port>
				<port id="1">
					<dim>1</dim>
					<dim>8</dim>
					<dim>1</dim>
					<dim>1</dim>
				</port>
			</input>
			<output>
				<port id="2" names="bottleneck1_1/inner/dw1/conv" precision="FP16">
					<dim>1</dim>
					<dim>8</dim>
					<dim>160</dim>
					<dim>272</dim>
				</port>
			</output>
		</layer>
		<layer id="52" name="bottleneck1_1/inner/dw1/fn/Cast_115473_const" type="Const" version="opset1">
			<data element_type="f32" offset="1380" shape="1" size="4"/>
			<output>
				<port id="0" precision="FP32">
					<dim>1</dim>
				</port>
			</output>
		</layer>
		<layer id="53" name="bottleneck1_1/inner/dw1/fn" type="PReLU" version="opset1">
			<input>
				<port id="0">
					<dim>1</dim>
					<dim>8</dim>
					<dim>160</dim>
					<dim>272</dim>
				</port>
				<port id="1">
					<dim>1</dim>
				</port>
			</input>
			<output>
				<port id="2" names="bottleneck1_1/inner/dw1/conv" precision="FP16">
					<dim>1</dim>
					<dim>8</dim>
					<dim>160</dim>
					<dim>272</dim>
				</port>
			</output>
		</layer>
		<layer id="54" name="49844988_const" type="Const" version="opset1">
			<data element_type="f16" offset="1576" shape="" size="2"/>
			<output>
				<port id="0" precision="FP16"/>
			</output>
		</layer>
		<layer id="55" name="49854989_const" type="Const" version="opset1">
			<data element_type="f16" offset="1578" shape="" size="2"/>
			<output>
				<port id="0" precision="FP16"/>
			</output>
		</layer>
		<layer id="56" name="49864990_const" type="Const" version="opset1">
			<data element_type="f16" offset="1576" shape="" size="2"/>
			<output>
				<port id="0" precision="FP16"/>
			</output>
		</layer>
		<layer id="57" name="49874991_const" type="Const" version="opset1">
			<data element_type="f16" offset="1578" shape="" size="2"/>
			<output>
				<port id="0" precision="FP16"/>
			</output>
		</layer>
		<layer id="58" name="bottleneck1_1/dim_inc/conv/fq_input_0" type="FakeQuantize" version="opset1">
			<data auto_broadcast="numpy" levels="256"/>
			<input>
				<port id="0">
					<dim>1</dim>
					<dim>8</dim>
					<dim>160</dim>
					<dim>272</dim>
				</port>
				<port id="1"/>
				<port id="2"/>
				<port id="3"/>
				<port id="4"/>
			</input>
			<output>
				<port id="5" precision="FP16">
					<dim>1</dim>
					<dim>8</dim>
					<dim>160</dim>
					<dim>272</dim>
				</port>
			</output>
		</layer>
		<layer id="59" name="bottleneck1_1/dim_inc/bn/mean/Fused_Mul_2616426166_const76810088/quantized13672_const" type="Const" version="opset1">
			<data element_type="i8" offset="1580" shape="32,8,1,1" size="256"/>
			<output>
				<port id="0" precision="I8">
					<dim>32</dim>
					<dim>8</dim>
					<dim>1</dim>
					<dim>1</dim>
				</port>
			</output>
		</layer>
		<layer id="60" name="bottleneck1_1/dim_inc/bn/mean/Fused_Mul_2616426166_const76810088/quantized/to_f16" type="Convert" version="opset1">
			<data destination_type="f16"/>
			<input>
				<port id="0">
					<dim>32</dim>
					<dim>8</dim>
					<dim>1</dim>
					<dim>1</dim>
				</port>
			</input>
			<output>
				<port id="1" precision="FP16">
					<dim>32</dim>
					<dim>8</dim>
					<dim>1</dim>
					<dim>1</dim>
				</port>
			</output>
		</layer>
		<layer id="61" name="bottleneck1_1/dim_inc/conv/fq_weights_1/zero_point13685_const" type="Const" version="opset1">
			<data element_type="f16" offset="1836" shape="32,1,1,1" size="64"/>
			<output>
				<port id="0" precision="FP16">
					<dim>32</dim>
					<dim>1</dim>
					<dim>1</dim>
					<dim>1</dim>
				</port>
			</output>
		</layer>
		<layer id="62" name="bottleneck1_1/dim_inc/conv/fq_weights_1/minus_zp" type="Subtract" version="opset1">
			<data auto_broadcast="numpy"/>
			<input>
				<port id="0">
					<dim>32</dim>
					<dim>8</dim>
					<dim>1</dim>
					<dim>1</dim>
				</port>
				<port id="1">
					<dim>32</dim>
					<dim>1</dim>
					<dim>1</dim>
					<dim>1</dim>
				</port>
			</input>
			<output>
				<port id="2" precision="FP16">
					<dim>32</dim>
					<dim>8</dim>
					<dim>1</dim>
					<dim>1</dim>
				</port>
			</output>
		</layer>
		<layer id="63" name="bottleneck1_1/dim_inc/conv/fq_weights_1/scale13680_const" type="Const" version="opset1">
			<data element_type="f16" offset="1900" shape="32,1,1,1" size="64"/>
			<output>
				<port id="0" precision="FP16">
					<dim>32</dim>
					<dim>1</dim>
					<dim>1</dim>
					<dim>1</dim>
				</port>
			</output>
		</layer>
		<layer id="64" name="bottleneck1_1/dim_inc/conv/fq_weights_1/mulpiply_by_scale" type="Multiply" version="opset1">
			<data auto_broadcast="numpy"/>
			<input>
				<port id="0">
					<dim>32</dim>
					<dim>8</dim>
					<dim>1</dim>
					<dim>1</dim>
				</port>
				<port id="1">
					<dim>32</dim>
					<dim>1</dim>
					<dim>1</dim>
					<dim>1</dim>
				</port>
			</input>
			<output>
				<port id="2" precision="FP16">
					<dim>32</dim>
					<dim>8</dim>
					<dim>1</dim>
					<dim>1</dim>
				</port>
			</output>
		</layer>
		<layer id="65" name="bottleneck1_1/dim_inc/conv" type="Convolution" version="opset1">
			<data auto_pad="explicit" dilations="1,1" pads_begin="0,0" pads_end="0,0" strides="1,1"/>
			<input>
				<port id="0">
					<dim>1</dim>
					<dim>8</dim>
					<dim>160</dim>
					<dim>272</dim>
				</port>
				<port id="1">
					<dim>32</dim>
					<dim>8</dim>
					<dim>1</dim>
					<dim>1</dim>
				</port>
			</input>
			<output>
				<port id="2" precision="FP16">
					<dim>1</dim>
					<dim>32</dim>
					<dim>160</dim>
					<dim>272</dim>
				</port>
			</output>
		</layer>
		<layer id="66" name="data_add_236722367724674/EltwiseUnsqueeze24938_const770_const" type="Const" version="opset1">
			<data element_type="f16" offset="1964" shape="1,32,1,1" size="64"/>
			<output>
				<port id="0" precision="FP16">
					<dim>1</dim>
					<dim>32</dim>
					<dim>1</dim>
					<dim>1</dim>
				</port>
			</output>
		</layer>
		<layer id="67" name="bottleneck1_1/dim_inc/bn/variance/Fused_Add_" type="Add" version="opset1">
			<data auto_broadcast="numpy"/>
			<input>
				<port id="0">
					<dim>1</dim>
					<dim>32</dim>
					<dim>160</dim>
					<dim>272</dim>
				</port>
				<port id="1">
					<dim>1</dim>
					<dim>32</dim>
					<dim>1</dim>
					<dim>1</dim>
				</port>
			</input>
			<output>
				<port id="2" names="bottleneck1_1/dim_inc/conv" precision="FP16">
					<dim>1</dim>
					<dim>32</dim>
					<dim>160</dim>
					<dim>272</dim>
				</port>
			</output>
		</layer>
		<layer id="68" name="51745178_const" type="Const" version="opset1">
			<data element_type="f16" offset="2028" shape="" size="2"/>
			<output>
				<port id="0" precision="FP16"/>
			</output>
		</layer>
		<layer id="69" name="51755179_const" type="Const" version="opset1">
			<data element_type="f16" offset="2030" shape="" size="2"/>
			<output>
				<port id="0" precision="FP16"/>
			</output>
		</layer>
		<layer id="70" name="51765180_const" type="Const" version="opset1">
			<data element_type="f16" offset="2028" shape="" size="2"/>
			<output>
				<port id="0" precision="FP16"/>
			</output>
		</layer>
		<layer id="71" name="51775181_const" type="Const" version="opset1">
			<data element_type="f16" offset="2030" shape="" size="2"/>
			<output>
				<port id="0" precision="FP16"/>
			</output>
		</layer>
		<layer id="72" name="bottleneck1_1/add/fq_input_1" type="FakeQuantize" version="opset1">
			<data auto_broadcast="numpy" levels="256"/>
			<input>
				<port id="0">
					<dim>1</dim>
					<dim>32</dim>
					<dim>160</dim>
					<dim>272</dim>
				</port>
				<port id="1"/>
				<port id="2"/>
				<port id="3"/>
				<port id="4"/>
			</input>
			<output>
				<port id="5" precision="FP16">
					<dim>1</dim>
					<dim>32</dim>
					<dim>160</dim>
					<dim>272</dim>
				</port>
			</output>
		</layer>
		<layer id="73" name="bottleneck1_1/add" type="Add" version="opset1">
			<data auto_broadcast="numpy"/>
			<input>
				<port id="0">
					<dim>1</dim>
					<dim>32</dim>
					<dim>160</dim>
					<dim>272</dim>
				</port>
				<port id="1">
					<dim>1</dim>
					<dim>32</dim>
					<dim>160</dim>
					<dim>272</dim>
				</port>
			</input>
			<output>
				<port id="2" names="bottleneck1_1/add" precision="FP16">
					<dim>1</dim>
					<dim>32</dim>
					<dim>160</dim>
					<dim>272</dim>
				</port>
			</output>
		</layer>
		<layer id="74" name="bottleneck1_1/fn/Cast_115581_const" type="Const" version="opset1">
			<data element_type="f32" offset="1380" shape="1" size="4"/>
			<output>
				<port id="0" precision="FP32">
					<dim>1</dim>
				</port>
			</output>
		</layer>
		<layer id="75" name="bottleneck1_1/fn" type="PReLU" version="opset1">
			<input>
				<port id="0">
					<dim>1</dim>
					<dim>32</dim>
					<dim>160</dim>
					<dim>272</dim>
				</port>
				<port id="1">
					<dim>1</dim>
				</port>
			</input>
			<output>
				<port id="2" names="bottleneck1_1/add" precision="FP16">
					<dim>1</dim>
					<dim>32</dim>
					<dim>160</dim>
					<dim>272</dim>
				</port>
			</output>
		</layer>
		<layer id="76" name="50845088_const" type="Const" version="opset1">
			<data element_type="f16" offset="2032" shape="" size="2"/>
			<output>
				<port id="0" precision="FP16"/>
			</output>
		</layer>
		<layer id="77" name="50855089_const" type="Const" version="opset1">
			<data element_type="f16" offset="2034" shape="" size="2"/>
			<output>
				<port id="0" precision="FP16"/>
			</output>
		</layer>
		<layer id="78" name="50865090_const" type="Const" version="opset1">
			<data element_type="f16" offset="2032" shape="" size="2"/>
			<output>
				<port id="0" precision="FP16"/>
			</output>
		</layer>
		<layer id="79" name="50875091_const" type="Const" version="opset1">
			<data element_type="f16" offset="2034" shape="" size="2"/>
			<output>
				<port id="0" precision="FP16"/>
			</output>
		</layer>
		<layer id="80" name="bottleneck1_2/add/fq_input_0" type="FakeQuantize" version="opset1">
			<data auto_broadcast="numpy" levels="256"/>
			<input>
				<port id="0">
					<dim>1</dim>
					<dim>32</dim>
					<dim>160</dim>
					<dim>272</dim>
				</port>
				<port id="1"/>
				<port id="2"/>
				<port id="3"/>
				<port id="4"/>
			</input>
			<output>
				<port id="5" precision="FP16">
					<dim>1</dim>
					<dim>32</dim>
					<dim>160</dim>
					<dim>272</dim>
				</port>
			</output>
		</layer>
		<layer id="81" name="bottleneck1_2/dim_red/bn/mean/Fused_Mul_2616826170_const77510091/quantized14056_const" type="Const" version="opset1">
			<data element_type="i8" offset="2036" shape="8,32,1,1" size="256"/>
			<output>
				<port id="0" precision="I8">
					<dim>8</dim>
					<dim>32</dim>
					<dim>1</dim>
					<dim>1</dim>
				</port>
			</output>
		</layer>
		<layer id="82" name="bottleneck1_2/dim_red/bn/mean/Fused_Mul_2616826170_const77510091/quantized/to_f16" type="Convert" version="opset1">
			<data destination_type="f16"/>
			<input>
				<port id="0">
					<dim>8</dim>
					<dim>32</dim>
					<dim>1</dim>
					<dim>1</dim>
				</port>
			</input>
			<output>
				<port id="1" precision="FP16">
					<dim>8</dim>
					<dim>32</dim>
					<dim>1</dim>
					<dim>1</dim>
				</port>
			</output>
		</layer>
		<layer id="83" name="bottleneck1_2/dim_red/conv/fq_weights_1/zero_point14069_const" type="Const" version="opset1">
			<data element_type="f16" offset="2292" shape="8,1,1,1" size="16"/>
			<output>
				<port id="0" precision="FP16">
					<dim>8</dim>
					<dim>1</dim>
					<dim>1</dim>
					<dim>1</dim>
				</port>
			</output>
		</layer>
		<layer id="84" name="bottleneck1_2/dim_red/conv/fq_weights_1/minus_zp" type="Subtract" version="opset1">
			<data auto_broadcast="numpy"/>
			<input>
				<port id="0">
					<dim>8</dim>
					<dim>32</dim>
					<dim>1</dim>
					<dim>1</dim>
				</port>
				<port id="1">
					<dim>8</dim>
					<dim>1</dim>
					<dim>1</dim>
					<dim>1</dim>
				</port>
			</input>
			<output>
				<port id="2" precision="FP16">
					<dim>8</dim>
					<dim>32</dim>
					<dim>1</dim>
					<dim>1</dim>
				</port>
			</output>
		</layer>
		<layer id="85" name="bottleneck1_2/dim_red/conv/fq_weights_1/scale14064_const" type="Const" version="opset1">
			<data element_type="f16" offset="2308" shape="8,1,1,1" size="16"/>
			<output>
				<port id="0" precision="FP16">
					<dim>8</dim>
					<dim>1</dim>
					<dim>1</dim>
					<dim>1</dim>
				</port>
			</output>
		</layer>
		<layer id="86" name="bottleneck1_2/dim_red/conv/fq_weights_1/mulpiply_by_scale" type="Multiply" version="opset1">
			<data auto_broadcast="numpy"/>
			<input>
				<port id="0">
					<dim>8</dim>
					<dim>32</dim>
					<dim>1</dim>
					<dim>1</dim>
				</port>
				<port id="1">
					<dim>8</dim>
					<dim>1</dim>
					<dim>1</dim>
					<dim>1</dim>
				</port>
			</input>
			<output>
				<port id="2" precision="FP16">
					<dim>8</dim>
					<dim>32</dim>
					<dim>1</dim>
					<dim>1</dim>
				</port>
			</output>
		</layer>
		<layer id="87" name="bottleneck1_2/dim_red/conv" type="Convolution" version="opset1">
			<data auto_pad="explicit" dilations="1,1" pads_begin="0,0" pads_end="0,0" strides="1,1"/>
			<input>
				<port id="0">
					<dim>1</dim>
					<dim>32</dim>
					<dim>160</dim>
					<dim>272</dim>
				</port>
				<port id="1">
					<dim>8</dim>
					<dim>32</dim>
					<dim>1</dim>
					<dim>1</dim>
				</port>
			</input>
			<output>
				<port id="2" precision="FP16">
					<dim>1</dim>
					<dim>8</dim>
					<dim>160</dim>
					<dim>272</dim>
				</port>
			</output>
		</layer>
		<layer id="88" name="data_add_236802368524676/EltwiseUnsqueeze24946_const777_const" type="Const" version="opset1">
			<data element_type="f16" offset="2324" shape="1,8,1,1" size="16"/>
			<output>
				<port id="0" precision="FP16">
					<dim>1</dim>
					<dim>8</dim>
					<dim>1</dim>
					<dim>1</dim>
				</port>
			</output>
		</layer>
		<layer id="89" name="bottleneck1_2/dim_red/bn/variance/Fused_Add_" type="Add" version="opset1">
			<data auto_broadcast="numpy"/>
			<input>
				<port id="0">
					<dim>1</dim>
					<dim>8</dim>
					<dim>160</dim>
					<dim>272</dim>
				</port>
				<port id="1">
					<dim>1</dim>
					<dim>8</dim>
					<dim>1</dim>
					<dim>1</dim>
				</port>
			</input>
			<output>
				<port id="2" names="bottleneck1_2/dim_red/conv" precision="FP16">
					<dim>1</dim>
					<dim>8</dim>
					<dim>160</dim>
					<dim>272</dim>
				</port>
			</output>
		</layer>
		<layer id="90" name="bottleneck1_2/dim_red/fn/Cast_115509_const" type="Const" version="opset1">
			<data element_type="f32" offset="1380" shape="1" size="4"/>
			<output>
				<port id="0" precision="FP32">
					<dim>1</dim>
				</port>
			</output>
		</layer>
		<layer id="91" name="bottleneck1_2/dim_red/fn" type="PReLU" version="opset1">
			<input>
				<port id="0">
					<dim>1</dim>
					<dim>8</dim>
					<dim>160</dim>
					<dim>272</dim>
				</port>
				<port id="1">
					<dim>1</dim>
				</port>
			</input>
			<output>
				<port id="2" names="bottleneck1_2/dim_red/conv" precision="FP16">
					<dim>1</dim>
					<dim>8</dim>
					<dim>160</dim>
					<dim>272</dim>
				</port>
			</output>
		</layer>
		<layer id="92" name="33043308_const" type="Const" version="opset1">
			<data element_type="f16" offset="2340" shape="1,8,1,1" size="16"/>
			<output>
				<port id="0" precision="FP16">
					<dim>1</dim>
					<dim>8</dim>
					<dim>1</dim>
					<dim>1</dim>
				</port>
			</output>
		</layer>
		<layer id="93" name="33053309_const" type="Const" version="opset1">
			<data element_type="f16" offset="2356" shape="1,8,1,1" size="16"/>
			<output>
				<port id="0" precision="FP16">
					<dim>1</dim>
					<dim>8</dim>
					<dim>1</dim>
					<dim>1</dim>
				</port>
			</output>
		</layer>
		<layer id="94" name="33063310_const" type="Const" version="opset1">
			<data element_type="f16" offset="2340" shape="1,8,1,1" size="16"/>
			<output>
				<port id="0" precision="FP16">
					<dim>1</dim>
					<dim>8</dim>
					<dim>1</dim>
					<dim>1</dim>
				</port>
			</output>
		</layer>
		<layer id="95" name="33073311_const" type="Const" version="opset1">
			<data element_type="f16" offset="2356" shape="1,8,1,1" size="16"/>
			<output>
				<port id="0" precision="FP16">
					<dim>1</dim>
					<dim>8</dim>
					<dim>1</dim>
					<dim>1</dim>
				</port>
			</output>
		</layer>
		<layer id="96" name="bottleneck1_2/inner/dw1/conv/fq_input_0" type="FakeQuantize" version="opset1">
			<data auto_broadcast="numpy" levels="256"/>
			<input>
				<port id="0">
					<dim>1</dim>
					<dim>8</dim>
					<dim>160</dim>
					<dim>272</dim>
				</port>
				<port id="1">
					<dim>1</dim>
					<dim>8</dim>
					<dim>1</dim>
					<dim>1</dim>
				</port>
				<port id="2">
					<dim>1</dim>
					<dim>8</dim>
					<dim>1</dim>
					<dim>1</dim>
				</port>
				<port id="3">
					<dim>1</dim>
					<dim>8</dim>
					<dim>1</dim>
					<dim>1</dim>
				</port>
				<port id="4">
					<dim>1</dim>
					<dim>8</dim>
					<dim>1</dim>
					<dim>1</dim>
				</port>
			</input>
			<output>
				<port id="5" precision="FP16">
					<dim>1</dim>
					<dim>8</dim>
					<dim>160</dim>
					<dim>272</dim>
				</port>
			</output>
		</layer>
		<layer id="97" name="3836538368_const78110094/quantized13456_const" type="Const" version="opset1">
			<data element_type="i8" offset="2372" shape="8,1,3,3" size="72"/>
			<output>
				<port id="0" precision="I8">
					<dim>8</dim>
					<dim>1</dim>
					<dim>3</dim>
					<dim>3</dim>
				</port>
			</output>
		</layer>
		<layer id="98" name="3836538368_const78110094/quantized/to_f16" type="Convert" version="opset1">
			<data destination_type="f16"/>
			<input>
				<port id="0">
					<dim>8</dim>
					<dim>1</dim>
					<dim>3</dim>
					<dim>3</dim>
				</port>
			</input>
			<output>
				<port id="1" precision="FP16">
					<dim>8</dim>
					<dim>1</dim>
					<dim>3</dim>
					<dim>3</dim>
				</port>
			</output>
		</layer>
		<layer id="99" name="bottleneck1_2/inner/dw1/conv/fq_weights_1/zero_point13469_const" type="Const" version="opset1">
			<data element_type="f16" offset="2444" shape="8,1,1,1" size="16"/>
			<output>
				<port id="0" precision="FP16">
					<dim>8</dim>
					<dim>1</dim>
					<dim>1</dim>
					<dim>1</dim>
				</port>
			</output>
		</layer>
		<layer id="100" name="bottleneck1_2/inner/dw1/conv/fq_weights_1/minus_zp" type="Subtract" version="opset1">
			<data auto_broadcast="numpy"/>
			<input>
				<port id="0">
					<dim>8</dim>
					<dim>1</dim>
					<dim>3</dim>
					<dim>3</dim>
				</port>
				<port id="1">
					<dim>8</dim>
					<dim>1</dim>
					<dim>1</dim>
					<dim>1</dim>
				</port>
			</input>
			<output>
				<port id="2" precision="FP16">
					<dim>8</dim>
					<dim>1</dim>
					<dim>3</dim>
					<dim>3</dim>
				</port>
			</output>
		</layer>
		<layer id="101" name="bottleneck1_2/inner/dw1/conv/fq_weights_1/scale13464_const" type="Const" version="opset1">
			<data element_type="f16" offset="2460" shape="8,1,1,1" size="16"/>
			<output>
				<port id="0" precision="FP16">
					<dim>8</dim>
					<dim>1</dim>
					<dim>1</dim>
					<dim>1</dim>
				</port>
			</output>
		</layer>
		<layer id="102" name="bottleneck1_2/inner/dw1/conv/fq_weights_1/mulpiply_by_scale" type="Multiply" version="opset1">
			<data auto_broadcast="numpy"/>
			<input>
				<port id="0">
					<dim>8</dim>
					<dim>1</dim>
					<dim>3</dim>
					<dim>3</dim>
				</port>
				<port id="1">
					<dim>8</dim>
					<dim>1</dim>
					<dim>1</dim>
					<dim>1</dim>
				</port>
			</input>
			<output>
				<port id="2" precision="FP16">
					<dim>8</dim>
					<dim>1</dim>
					<dim>3</dim>
					<dim>3</dim>
				</port>
			</output>
		</layer>
		<layer id="103" name="16835/value16837_const" type="Const" version="opset1">
			<data element_type="i64" offset="1520" shape="5" size="40"/>
			<output>
				<port id="0" precision="I64">
					<dim>5</dim>
				</port>
			</output>
		</layer>
		<layer id="104" name="16835" type="Reshape" version="opset1">
			<data special_zero="true"/>
			<input>
				<port id="0">
					<dim>8</dim>
					<dim>1</dim>
					<dim>3</dim>
					<dim>3</dim>
				</port>
				<port id="1">
					<dim>5</dim>
				</port>
			</input>
			<output>
				<port id="2" precision="FP16">
					<dim>8</dim>
					<dim>1</dim>
					<dim>1</dim>
					<dim>3</dim>
					<dim>3</dim>
				</port>
			</output>
		</layer>
		<layer id="105" name="bottleneck1_2/inner/dw1/conv" type="GroupConvolution" version="opset1">
			<data auto_pad="explicit" dilations="1,1" pads_begin="1,1" pads_end="1,1" strides="1,1"/>
			<input>
				<port id="0">
					<dim>1</dim>
					<dim>8</dim>
					<dim>160</dim>
					<dim>272</dim>
				</port>
				<port id="1">
					<dim>8</dim>
					<dim>1</dim>
					<dim>1</dim>
					<dim>3</dim>
					<dim>3</dim>
				</port>
			</input>
			<output>
				<port id="2" precision="FP16">
					<dim>1</dim>
					<dim>8</dim>
					<dim>160</dim>
					<dim>272</dim>
				</port>
			</output>
		</layer>
		<layer id="106" name="data_add_236882369324678/EltwiseUnsqueeze24954_const783_const" type="Const" version="opset1">
			<data element_type="f16" offset="2476" shape="1,8,1,1" size="16"/>
			<output>
				<port id="0" precision="FP16">
					<dim>1</dim>
					<dim>8</dim>
					<dim>1</dim>
					<dim>1</dim>
				</port>
			</output>
		</layer>
		<layer id="107" name="bottleneck1_2/inner/dw1/bn/variance/Fused_Add_" type="Add" version="opset1">
			<data auto_broadcast="numpy"/>
			<input>
				<port id="0">
					<dim>1</dim>
					<dim>8</dim>
					<dim>160</dim>
					<dim>272</dim>
				</port>
				<port id="1">
					<dim>1</dim>
					<dim>8</dim>
					<dim>1</dim>
					<dim>1</dim>
				</port>
			</input>
			<output>
				<port id="2" names="bottleneck1_2/inner/dw1/conv" precision="FP16">
					<dim>1</dim>
					<dim>8</dim>
					<dim>160</dim>
					<dim>272</dim>
				</port>
			</output>
		</layer>
		<layer id="108" name="bottleneck1_2/inner/dw1/fn/Cast_115559_const" type="Const" version="opset1">
			<data element_type="f32" offset="1380" shape="1" size="4"/>
			<output>
				<port id="0" precision="FP32">
					<dim>1</dim>
				</port>
			</output>
		</layer>
		<layer id="109" name="bottleneck1_2/inner/dw1/fn" type="PReLU" version="opset1">
			<input>
				<port id="0">
					<dim>1</dim>
					<dim>8</dim>
					<dim>160</dim>
					<dim>272</dim>
				</port>
				<port id="1">
					<dim>1</dim>
				</port>
			</input>
			<output>
				<port id="2" names="bottleneck1_2/inner/dw1/conv" precision="FP16">
					<dim>1</dim>
					<dim>8</dim>
					<dim>160</dim>
					<dim>272</dim>
				</port>
			</output>
		</layer>
		<layer id="110" name="28442848_const" type="Const" version="opset1">
			<data element_type="f16" offset="2492" shape="" size="2"/>
			<output>
				<port id="0" precision="FP16"/>
			</output>
		</layer>
		<layer id="111" name="28452849_const" type="Const" version="opset1">
			<data element_type="f16" offset="2494" shape="" size="2"/>
			<output>
				<port id="0" precision="FP16"/>
			</output>
		</layer>
		<layer id="112" name="28462850_const" type="Const" version="opset1">
			<data element_type="f16" offset="2492" shape="" size="2"/>
			<output>
				<port id="0" precision="FP16"/>
			</output>
		</layer>
		<layer id="113" name="28472851_const" type="Const" version="opset1">
			<data element_type="f16" offset="2494" shape="" size="2"/>
			<output>
				<port id="0" precision="FP16"/>
			</output>
		</layer>
		<layer id="114" name="bottleneck1_2/dim_inc/conv/fq_input_0" type="FakeQuantize" version="opset1">
			<data auto_broadcast="numpy" levels="256"/>
			<input>
				<port id="0">
					<dim>1</dim>
					<dim>8</dim>
					<dim>160</dim>
					<dim>272</dim>
				</port>
				<port id="1"/>
				<port id="2"/>
				<port id="3"/>
				<port id="4"/>
			</input>
			<output>
				<port id="5" precision="FP16">
					<dim>1</dim>
					<dim>8</dim>
					<dim>160</dim>
					<dim>272</dim>
				</port>
			</output>
		</layer>
		<layer id="115" name="bottleneck1_2/dim_inc/bn/mean/Fused_Mul_2617626178_const78710097/quantized11584_const" type="Const" version="opset1">
			<data element_type="i8" offset="2496" shape="32,8,1,1" size="256"/>
			<output>
				<port id="0" precision="I8">
					<dim>32</dim>
					<dim>8</dim>
					<dim>1</dim>
					<dim>1</dim>
				</port>
			</output>
		</layer>
		<layer id="116" name="bottleneck1_2/dim_inc/bn/mean/Fused_Mul_2617626178_const78710097/quantized/to_f16" type="Convert" version="opset1">
			<data destination_type="f16"/>
			<input>
				<port id="0">
					<dim>32</dim>
					<dim>8</dim>
					<dim>1</dim>
					<dim>1</dim>
				</port>
			</input>
			<output>
				<port id="1" precision="FP16">
					<dim>32</dim>
					<dim>8</dim>
					<dim>1</dim>
					<dim>1</dim>
				</port>
			</output>
		</layer>
		<layer id="117" name="bottleneck1_2/dim_inc/conv/fq_weights_1/zero_point11597_const" type="Const" version="opset1">
			<data element_type="f16" offset="2752" shape="32,1,1,1" size="64"/>
			<output>
				<port id="0" precision="FP16">
					<dim>32</dim>
					<dim>1</dim>
					<dim>1</dim>
					<dim>1</dim>
				</port>
			</output>
		</layer>
		<layer id="118" name="bottleneck1_2/dim_inc/conv/fq_weights_1/minus_zp" type="Subtract" version="opset1">
			<data auto_broadcast="numpy"/>
			<input>
				<port id="0">
					<dim>32</dim>
					<dim>8</dim>
					<dim>1</dim>
					<dim>1</dim>
				</port>
				<port id="1">
					<dim>32</dim>
					<dim>1</dim>
					<dim>1</dim>
					<dim>1</dim>
				</port>
			</input>
			<output>
				<port id="2" precision="FP16">
					<dim>32</dim>
					<dim>8</dim>
					<dim>1</dim>
					<dim>1</dim>
				</port>
			</output>
		</layer>
		<layer id="119" name="bottleneck1_2/dim_inc/conv/fq_weights_1/scale11592_const" type="Const" version="opset1">
			<data element_type="f16" offset="2816" shape="32,1,1,1" size="64"/>
			<output>
				<port id="0" precision="FP16">
					<dim>32</dim>
					<dim>1</dim>
					<dim>1</dim>
					<dim>1</dim>
				</port>
			</output>
		</layer>
		<layer id="120" name="bottleneck1_2/dim_inc/conv/fq_weights_1/mulpiply_by_scale" type="Multiply" version="opset1">
			<data auto_broadcast="numpy"/>
			<input>
				<port id="0">
					<dim>32</dim>
					<dim>8</dim>
					<dim>1</dim>
					<dim>1</dim>
				</port>
				<port id="1">
					<dim>32</dim>
					<dim>1</dim>
					<dim>1</dim>
					<dim>1</dim>
				</port>
			</input>
			<output>
				<port id="2" precision="FP16">
					<dim>32</dim>
					<dim>8</dim>
					<dim>1</dim>
					<dim>1</dim>
				</port>
			</output>
		</layer>
		<layer id="121" name="bottleneck1_2/dim_inc/conv" type="Convolution" version="opset1">
			<data auto_pad="explicit" dilations="1,1" pads_begin="0,0" pads_end="0,0" strides="1,1"/>
			<input>
				<port id="0">
					<dim>1</dim>
					<dim>8</dim>
					<dim>160</dim>
					<dim>272</dim>
				</port>
				<port id="1">
					<dim>32</dim>
					<dim>8</dim>
					<dim>1</dim>
					<dim>1</dim>
				</port>
			</input>
			<output>
				<port id="2" precision="FP16">
					<dim>1</dim>
					<dim>32</dim>
					<dim>160</dim>
					<dim>272</dim>
				</port>
			</output>
		</layer>
		<layer id="122" name="data_add_236962370124680/EltwiseUnsqueeze24962_const789_const" type="Const" version="opset1">
			<data element_type="f16" offset="2880" shape="1,32,1,1" size="64"/>
			<output>
				<port id="0" precision="FP16">
					<dim>1</dim>
					<dim>32</dim>
					<dim>1</dim>
					<dim>1</dim>
				</port>
			</output>
		</layer>
		<layer id="123" name="bottleneck1_2/dim_inc/bn/variance/Fused_Add_" type="Add" version="opset1">
			<data auto_broadcast="numpy"/>
			<input>
				<port id="0">
					<dim>1</dim>
					<dim>32</dim>
					<dim>160</dim>
					<dim>272</dim>
				</port>
				<port id="1">
					<dim>1</dim>
					<dim>32</dim>
					<dim>1</dim>
					<dim>1</dim>
				</port>
			</input>
			<output>
				<port id="2" names="bottleneck1_2/dim_inc/conv" precision="FP16">
					<dim>1</dim>
					<dim>32</dim>
					<dim>160</dim>
					<dim>272</dim>
				</port>
			</output>
		</layer>
		<layer id="124" name="50945098_const" type="Const" version="opset1">
			<data element_type="f16" offset="2944" shape="" size="2"/>
			<output>
				<port id="0" precision="FP16"/>
			</output>
		</layer>
		<layer id="125" name="50955099_const" type="Const" version="opset1">
			<data element_type="f16" offset="2946" shape="" size="2"/>
			<output>
				<port id="0" precision="FP16"/>
			</output>
		</layer>
		<layer id="126" name="50965100_const" type="Const" version="opset1">
			<data element_type="f16" offset="2944" shape="" size="2"/>
			<output>
				<port id="0" precision="FP16"/>
			</output>
		</layer>
		<layer id="127" name="50975101_const" type="Const" version="opset1">
			<data element_type="f16" offset="2946" shape="" size="2"/>
			<output>
				<port id="0" precision="FP16"/>
			</output>
		</layer>
		<layer id="128" name="bottleneck1_2/add/fq_input_1" type="FakeQuantize" version="opset1">
			<data auto_broadcast="numpy" levels="256"/>
			<input>
				<port id="0">
					<dim>1</dim>
					<dim>32</dim>
					<dim>160</dim>
					<dim>272</dim>
				</port>
				<port id="1"/>
				<port id="2"/>
				<port id="3"/>
				<port id="4"/>
			</input>
			<output>
				<port id="5" precision="FP16">
					<dim>1</dim>
					<dim>32</dim>
					<dim>160</dim>
					<dim>272</dim>
				</port>
			</output>
		</layer>
		<layer id="129" name="bottleneck1_2/add" type="Add" version="opset1">
			<data auto_broadcast="numpy"/>
			<input>
				<port id="0">
					<dim>1</dim>
					<dim>32</dim>
					<dim>160</dim>
					<dim>272</dim>
				</port>
				<port id="1">
					<dim>1</dim>
					<dim>32</dim>
					<dim>160</dim>
					<dim>272</dim>
				</port>
			</input>
			<output>
				<port id="2" names="bottleneck1_2/add" precision="FP16">
					<dim>1</dim>
					<dim>32</dim>
					<dim>160</dim>
					<dim>272</dim>
				</port>
			</output>
		</layer>
		<layer id="130" name="bottleneck1_2/fn/Cast_115587_const" type="Const" version="opset1">
			<data element_type="f32" offset="1380" shape="1" size="4"/>
			<output>
				<port id="0" precision="FP32">
					<dim>1</dim>
				</port>
			</output>
		</layer>
		<layer id="131" name="bottleneck1_2/fn" type="PReLU" version="opset1">
			<input>
				<port id="0">
					<dim>1</dim>
					<dim>32</dim>
					<dim>160</dim>
					<dim>272</dim>
				</port>
				<port id="1">
					<dim>1</dim>
				</port>
			</input>
			<output>
				<port id="2" names="bottleneck1_2/add" precision="FP16">
					<dim>1</dim>
					<dim>32</dim>
					<dim>160</dim>
					<dim>272</dim>
				</port>
			</output>
		</layer>
		<layer id="132" name="51045108_const" type="Const" version="opset1">
			<data element_type="f16" offset="2948" shape="" size="2"/>
			<output>
				<port id="0" precision="FP16"/>
			</output>
		</layer>
		<layer id="133" name="51055109_const" type="Const" version="opset1">
			<data element_type="f16" offset="2950" shape="" size="2"/>
			<output>
				<port id="0" precision="FP16"/>
			</output>
		</layer>
		<layer id="134" name="51065110_const" type="Const" version="opset1">
			<data element_type="f16" offset="2948" shape="" size="2"/>
			<output>
				<port id="0" precision="FP16"/>
			</output>
		</layer>
		<layer id="135" name="51075111_const" type="Const" version="opset1">
			<data element_type="f16" offset="2950" shape="" size="2"/>
			<output>
				<port id="0" precision="FP16"/>
			</output>
		</layer>
		<layer id="136" name="bottleneck1_3/add/fq_input_0" type="FakeQuantize" version="opset1">
			<data auto_broadcast="numpy" levels="256"/>
			<input>
				<port id="0">
					<dim>1</dim>
					<dim>32</dim>
					<dim>160</dim>
					<dim>272</dim>
				</port>
				<port id="1"/>
				<port id="2"/>
				<port id="3"/>
				<port id="4"/>
			</input>
			<output>
				<port id="5" precision="FP16">
					<dim>1</dim>
					<dim>32</dim>
					<dim>160</dim>
					<dim>272</dim>
				</port>
			</output>
		</layer>
		<layer id="137" name="bottleneck1_3/dim_red/bn/mean/Fused_Mul_2618026182_const79410100/quantized12592_const" type="Const" version="opset1">
			<data element_type="i8" offset="2952" shape="8,32,1,1" size="256"/>
			<output>
				<port id="0" precision="I8">
					<dim>8</dim>
					<dim>32</dim>
					<dim>1</dim>
					<dim>1</dim>
				</port>
			</output>
		</layer>
		<layer id="138" name="bottleneck1_3/dim_red/bn/mean/Fused_Mul_2618026182_const79410100/quantized/to_f16" type="Convert" version="opset1">
			<data destination_type="f16"/>
			<input>
				<port id="0">
					<dim>8</dim>
					<dim>32</dim>
					<dim>1</dim>
					<dim>1</dim>
				</port>
			</input>
			<output>
				<port id="1" precision="FP16">
					<dim>8</dim>
					<dim>32</dim>
					<dim>1</dim>
					<dim>1</dim>
				</port>
			</output>
		</layer>
		<layer id="139" name="bottleneck1_3/dim_red/conv/fq_weights_1/zero_point12605_const" type="Const" version="opset1">
			<data element_type="f16" offset="3208" shape="8,1,1,1" size="16"/>
			<output>
				<port id="0" precision="FP16">
					<dim>8</dim>
					<dim>1</dim>
					<dim>1</dim>
					<dim>1</dim>
				</port>
			</output>
		</layer>
		<layer id="140" name="bottleneck1_3/dim_red/conv/fq_weights_1/minus_zp" type="Subtract" version="opset1">
			<data auto_broadcast="numpy"/>
			<input>
				<port id="0">
					<dim>8</dim>
					<dim>32</dim>
					<dim>1</dim>
					<dim>1</dim>
				</port>
				<port id="1">
					<dim>8</dim>
					<dim>1</dim>
					<dim>1</dim>
					<dim>1</dim>
				</port>
			</input>
			<output>
				<port id="2" precision="FP16">
					<dim>8</dim>
					<dim>32</dim>
					<dim>1</dim>
					<dim>1</dim>
				</port>
			</output>
		</layer>
		<layer id="141" name="bottleneck1_3/dim_red/conv/fq_weights_1/scale12600_const" type="Const" version="opset1">
			<data element_type="f16" offset="3224" shape="8,1,1,1" size="16"/>
			<output>
				<port id="0" precision="FP16">
					<dim>8</dim>
					<dim>1</dim>
					<dim>1</dim>
					<dim>1</dim>
				</port>
			</output>
		</layer>
		<layer id="142" name="bottleneck1_3/dim_red/conv/fq_weights_1/mulpiply_by_scale" type="Multiply" version="opset1">
			<data auto_broadcast="numpy"/>
			<input>
				<port id="0">
					<dim>8</dim>
					<dim>32</dim>
					<dim>1</dim>
					<dim>1</dim>
				</port>
				<port id="1">
					<dim>8</dim>
					<dim>1</dim>
					<dim>1</dim>
					<dim>1</dim>
				</port>
			</input>
			<output>
				<port id="2" precision="FP16">
					<dim>8</dim>
					<dim>32</dim>
					<dim>1</dim>
					<dim>1</dim>
				</port>
			</output>
		</layer>
		<layer id="143" name="bottleneck1_3/dim_red/conv" type="Convolution" version="opset1">
			<data auto_pad="explicit" dilations="1,1" pads_begin="0,0" pads_end="0,0" strides="1,1"/>
			<input>
				<port id="0">
					<dim>1</dim>
					<dim>32</dim>
					<dim>160</dim>
					<dim>272</dim>
				</port>
				<port id="1">
					<dim>8</dim>
					<dim>32</dim>
					<dim>1</dim>
					<dim>1</dim>
				</port>
			</input>
			<output>
				<port id="2" precision="FP16">
					<dim>1</dim>
					<dim>8</dim>
					<dim>160</dim>
					<dim>272</dim>
				</port>
			</output>
		</layer>
		<layer id="144" name="data_add_237042370924682/EltwiseUnsqueeze24970_const796_const" type="Const" version="opset1">
			<data element_type="f16" offset="3240" shape="1,8,1,1" size="16"/>
			<output>
				<port id="0" precision="FP16">
					<dim>1</dim>
					<dim>8</dim>
					<dim>1</dim>
					<dim>1</dim>
				</port>
			</output>
		</layer>
		<layer id="145" name="bottleneck1_3/dim_red/bn/variance/Fused_Add_" type="Add" version="opset1">
			<data auto_broadcast="numpy"/>
			<input>
				<port id="0">
					<dim>1</dim>
					<dim>8</dim>
					<dim>160</dim>
					<dim>272</dim>
				</port>
				<port id="1">
					<dim>1</dim>
					<dim>8</dim>
					<dim>1</dim>
					<dim>1</dim>
				</port>
			</input>
			<output>
				<port id="2" names="bottleneck1_3/dim_red/conv" precision="FP16">
					<dim>1</dim>
					<dim>8</dim>
					<dim>160</dim>
					<dim>272</dim>
				</port>
			</output>
		</layer>
		<layer id="146" name="bottleneck1_3/dim_red/fn/Cast_115623_const" type="Const" version="opset1">
			<data element_type="f32" offset="1380" shape="1" size="4"/>
			<output>
				<port id="0" precision="FP32">
					<dim>1</dim>
				</port>
			</output>
		</layer>
		<layer id="147" name="bottleneck1_3/dim_red/fn" type="PReLU" version="opset1">
			<input>
				<port id="0">
					<dim>1</dim>
					<dim>8</dim>
					<dim>160</dim>
					<dim>272</dim>
				</port>
				<port id="1">
					<dim>1</dim>
				</port>
			</input>
			<output>
				<port id="2" names="bottleneck1_3/dim_red/conv" precision="FP16">
					<dim>1</dim>
					<dim>8</dim>
					<dim>160</dim>
					<dim>272</dim>
				</port>
			</output>
		</layer>
		<layer id="148" name="43444348_const" type="Const" version="opset1">
			<data element_type="f16" offset="3256" shape="1,8,1,1" size="16"/>
			<output>
				<port id="0" precision="FP16">
					<dim>1</dim>
					<dim>8</dim>
					<dim>1</dim>
					<dim>1</dim>
				</port>
			</output>
		</layer>
		<layer id="149" name="43454349_const" type="Const" version="opset1">
			<data element_type="f16" offset="3272" shape="1,8,1,1" size="16"/>
			<output>
				<port id="0" precision="FP16">
					<dim>1</dim>
					<dim>8</dim>
					<dim>1</dim>
					<dim>1</dim>
				</port>
			</output>
		</layer>
		<layer id="150" name="43464350_const" type="Const" version="opset1">
			<data element_type="f16" offset="3256" shape="1,8,1,1" size="16"/>
			<output>
				<port id="0" precision="FP16">
					<dim>1</dim>
					<dim>8</dim>
					<dim>1</dim>
					<dim>1</dim>
				</port>
			</output>
		</layer>
		<layer id="151" name="43474351_const" type="Const" version="opset1">
			<data element_type="f16" offset="3272" shape="1,8,1,1" size="16"/>
			<output>
				<port id="0" precision="FP16">
					<dim>1</dim>
					<dim>8</dim>
					<dim>1</dim>
					<dim>1</dim>
				</port>
			</output>
		</layer>
		<layer id="152" name="bottleneck1_3/inner/dw1/conv/fq_input_0" type="FakeQuantize" version="opset1">
			<data auto_broadcast="numpy" levels="256"/>
			<input>
				<port id="0">
					<dim>1</dim>
					<dim>8</dim>
					<dim>160</dim>
					<dim>272</dim>
				</port>
				<port id="1">
					<dim>1</dim>
					<dim>8</dim>
					<dim>1</dim>
					<dim>1</dim>
				</port>
				<port id="2">
					<dim>1</dim>
					<dim>8</dim>
					<dim>1</dim>
					<dim>1</dim>
				</port>
				<port id="3">
					<dim>1</dim>
					<dim>8</dim>
					<dim>1</dim>
					<dim>1</dim>
				</port>
				<port id="4">
					<dim>1</dim>
					<dim>8</dim>
					<dim>1</dim>
					<dim>1</dim>
				</port>
			</input>
			<output>
				<port id="5" precision="FP16">
					<dim>1</dim>
					<dim>8</dim>
					<dim>160</dim>
					<dim>272</dim>
				</port>
			</output>
		</layer>
		<layer id="153" name="3823738240_const80010103/quantized12232_const" type="Const" version="opset1">
			<data element_type="i8" offset="3288" shape="8,1,3,3" size="72"/>
			<output>
				<port id="0" precision="I8">
					<dim>8</dim>
					<dim>1</dim>
					<dim>3</dim>
					<dim>3</dim>
				</port>
			</output>
		</layer>
		<layer id="154" name="3823738240_const80010103/quantized/to_f16" type="Convert" version="opset1">
			<data destination_type="f16"/>
			<input>
				<port id="0">
					<dim>8</dim>
					<dim>1</dim>
					<dim>3</dim>
					<dim>3</dim>
				</port>
			</input>
			<output>
				<port id="1" precision="FP16">
					<dim>8</dim>
					<dim>1</dim>
					<dim>3</dim>
					<dim>3</dim>
				</port>
			</output>
		</layer>
		<layer id="155" name="bottleneck1_3/inner/dw1/conv/fq_weights_1/zero_point12245_const" type="Const" version="opset1">
			<data element_type="f16" offset="3360" shape="8,1,1,1" size="16"/>
			<output>
				<port id="0" precision="FP16">
					<dim>8</dim>
					<dim>1</dim>
					<dim>1</dim>
					<dim>1</dim>
				</port>
			</output>
		</layer>
		<layer id="156" name="bottleneck1_3/inner/dw1/conv/fq_weights_1/minus_zp" type="Subtract" version="opset1">
			<data auto_broadcast="numpy"/>
			<input>
				<port id="0">
					<dim>8</dim>
					<dim>1</dim>
					<dim>3</dim>
					<dim>3</dim>
				</port>
				<port id="1">
					<dim>8</dim>
					<dim>1</dim>
					<dim>1</dim>
					<dim>1</dim>
				</port>
			</input>
			<output>
				<port id="2" precision="FP16">
					<dim>8</dim>
					<dim>1</dim>
					<dim>3</dim>
					<dim>3</dim>
				</port>
			</output>
		</layer>
		<layer id="157" name="bottleneck1_3/inner/dw1/conv/fq_weights_1/scale12240_const" type="Const" version="opset1">
			<data element_type="f16" offset="3376" shape="8,1,1,1" size="16"/>
			<output>
				<port id="0" precision="FP16">
					<dim>8</dim>
					<dim>1</dim>
					<dim>1</dim>
					<dim>1</dim>
				</port>
			</output>
		</layer>
		<layer id="158" name="bottleneck1_3/inner/dw1/conv/fq_weights_1/mulpiply_by_scale" type="Multiply" version="opset1">
			<data auto_broadcast="numpy"/>
			<input>
				<port id="0">
					<dim>8</dim>
					<dim>1</dim>
					<dim>3</dim>
					<dim>3</dim>
				</port>
				<port id="1">
					<dim>8</dim>
					<dim>1</dim>
					<dim>1</dim>
					<dim>1</dim>
				</port>
			</input>
			<output>
				<port id="2" precision="FP16">
					<dim>8</dim>
					<dim>1</dim>
					<dim>3</dim>
					<dim>3</dim>
				</port>
			</output>
		</layer>
		<layer id="159" name="16891/value16893_const" type="Const" version="opset1">
			<data element_type="i64" offset="1520" shape="5" size="40"/>
			<output>
				<port id="0" precision="I64">
					<dim>5</dim>
				</port>
			</output>
		</layer>
		<layer id="160" name="16891" type="Reshape" version="opset1">
			<data special_zero="true"/>
			<input>
				<port id="0">
					<dim>8</dim>
					<dim>1</dim>
					<dim>3</dim>
					<dim>3</dim>
				</port>
				<port id="1">
					<dim>5</dim>
				</port>
			</input>
			<output>
				<port id="2" precision="FP16">
					<dim>8</dim>
					<dim>1</dim>
					<dim>1</dim>
					<dim>3</dim>
					<dim>3</dim>
				</port>
			</output>
		</layer>
		<layer id="161" name="bottleneck1_3/inner/dw1/conv" type="GroupConvolution" version="opset1">
			<data auto_pad="explicit" dilations="1,1" pads_begin="1,1" pads_end="1,1" strides="1,1"/>
			<input>
				<port id="0">
					<dim>1</dim>
					<dim>8</dim>
					<dim>160</dim>
					<dim>272</dim>
				</port>
				<port id="1">
					<dim>8</dim>
					<dim>1</dim>
					<dim>1</dim>
					<dim>3</dim>
					<dim>3</dim>
				</port>
			</input>
			<output>
				<port id="2" precision="FP16">
					<dim>1</dim>
					<dim>8</dim>
					<dim>160</dim>
					<dim>272</dim>
				</port>
			</output>
		</layer>
		<layer id="162" name="data_add_237122371724684/EltwiseUnsqueeze24978_const802_const" type="Const" version="opset1">
			<data element_type="f16" offset="3392" shape="1,8,1,1" size="16"/>
			<output>
				<port id="0" precision="FP16">
					<dim>1</dim>
					<dim>8</dim>
					<dim>1</dim>
					<dim>1</dim>
				</port>
			</output>
		</layer>
		<layer id="163" name="bottleneck1_3/inner/dw1/bn/variance/Fused_Add_" type="Add" version="opset1">
			<data auto_broadcast="numpy"/>
			<input>
				<port id="0">
					<dim>1</dim>
					<dim>8</dim>
					<dim>160</dim>
					<dim>272</dim>
				</port>
				<port id="1">
					<dim>1</dim>
					<dim>8</dim>
					<dim>1</dim>
					<dim>1</dim>
				</port>
			</input>
			<output>
				<port id="2" names="bottleneck1_3/inner/dw1/conv" precision="FP16">
					<dim>1</dim>
					<dim>8</dim>
					<dim>160</dim>
					<dim>272</dim>
				</port>
			</output>
		</layer>
		<layer id="164" name="bottleneck1_3/inner/dw1/fn/Cast_115489_const" type="Const" version="opset1">
			<data element_type="f32" offset="1380" shape="1" size="4"/>
			<output>
				<port id="0" precision="FP32">
					<dim>1</dim>
				</port>
			</output>
		</layer>
		<layer id="165" name="bottleneck1_3/inner/dw1/fn" type="PReLU" version="opset1">
			<input>
				<port id="0">
					<dim>1</dim>
					<dim>8</dim>
					<dim>160</dim>
					<dim>272</dim>
				</port>
				<port id="1">
					<dim>1</dim>
				</port>
			</input>
			<output>
				<port id="2" names="bottleneck1_3/inner/dw1/conv" precision="FP16">
					<dim>1</dim>
					<dim>8</dim>
					<dim>160</dim>
					<dim>272</dim>
				</port>
			</output>
		</layer>
		<layer id="166" name="40844088_const" type="Const" version="opset1">
			<data element_type="f16" offset="3408" shape="" size="2"/>
			<output>
				<port id="0" precision="FP16"/>
			</output>
		</layer>
		<layer id="167" name="40854089_const" type="Const" version="opset1">
			<data element_type="f16" offset="3410" shape="" size="2"/>
			<output>
				<port id="0" precision="FP16"/>
			</output>
		</layer>
		<layer id="168" name="40864090_const" type="Const" version="opset1">
			<data element_type="f16" offset="3408" shape="" size="2"/>
			<output>
				<port id="0" precision="FP16"/>
			</output>
		</layer>
		<layer id="169" name="40874091_const" type="Const" version="opset1">
			<data element_type="f16" offset="3410" shape="" size="2"/>
			<output>
				<port id="0" precision="FP16"/>
			</output>
		</layer>
		<layer id="170" name="bottleneck1_3/dim_inc/conv/fq_input_0" type="FakeQuantize" version="opset1">
			<data auto_broadcast="numpy" levels="256"/>
			<input>
				<port id="0">
					<dim>1</dim>
					<dim>8</dim>
					<dim>160</dim>
					<dim>272</dim>
				</port>
				<port id="1"/>
				<port id="2"/>
				<port id="3"/>
				<port id="4"/>
			</input>
			<output>
				<port id="5" precision="FP16">
					<dim>1</dim>
					<dim>8</dim>
					<dim>160</dim>
					<dim>272</dim>
				</port>
			</output>
		</layer>
		<layer id="171" name="bottleneck1_3/dim_inc/bn/mean/Fused_Mul_2618826190_const80610106/quantized12664_const" type="Const" version="opset1">
			<data element_type="i8" offset="3412" shape="32,8,1,1" size="256"/>
			<output>
				<port id="0" precision="I8">
					<dim>32</dim>
					<dim>8</dim>
					<dim>1</dim>
					<dim>1</dim>
				</port>
			</output>
		</layer>
		<layer id="172" name="bottleneck1_3/dim_inc/bn/mean/Fused_Mul_2618826190_const80610106/quantized/to_f16" type="Convert" version="opset1">
			<data destination_type="f16"/>
			<input>
				<port id="0">
					<dim>32</dim>
					<dim>8</dim>
					<dim>1</dim>
					<dim>1</dim>
				</port>
			</input>
			<output>
				<port id="1" precision="FP16">
					<dim>32</dim>
					<dim>8</dim>
					<dim>1</dim>
					<dim>1</dim>
				</port>
			</output>
		</layer>
		<layer id="173" name="bottleneck1_3/dim_inc/conv/fq_weights_1/zero_point12677_const" type="Const" version="opset1">
			<data element_type="f16" offset="3668" shape="32,1,1,1" size="64"/>
			<output>
				<port id="0" precision="FP16">
					<dim>32</dim>
					<dim>1</dim>
					<dim>1</dim>
					<dim>1</dim>
				</port>
			</output>
		</layer>
		<layer id="174" name="bottleneck1_3/dim_inc/conv/fq_weights_1/minus_zp" type="Subtract" version="opset1">
			<data auto_broadcast="numpy"/>
			<input>
				<port id="0">
					<dim>32</dim>
					<dim>8</dim>
					<dim>1</dim>
					<dim>1</dim>
				</port>
				<port id="1">
					<dim>32</dim>
					<dim>1</dim>
					<dim>1</dim>
					<dim>1</dim>
				</port>
			</input>
			<output>
				<port id="2" precision="FP16">
					<dim>32</dim>
					<dim>8</dim>
					<dim>1</dim>
					<dim>1</dim>
				</port>
			</output>
		</layer>
		<layer id="175" name="bottleneck1_3/dim_inc/conv/fq_weights_1/scale12672_const" type="Const" version="opset1">
			<data element_type="f16" offset="3732" shape="32,1,1,1" size="64"/>
			<output>
				<port id="0" precision="FP16">
					<dim>32</dim>
					<dim>1</dim>
					<dim>1</dim>
					<dim>1</dim>
				</port>
			</output>
		</layer>
		<layer id="176" name="bottleneck1_3/dim_inc/conv/fq_weights_1/mulpiply_by_scale" type="Multiply" version="opset1">
			<data auto_broadcast="numpy"/>
			<input>
				<port id="0">
					<dim>32</dim>
					<dim>8</dim>
					<dim>1</dim>
					<dim>1</dim>
				</port>
				<port id="1">
					<dim>32</dim>
					<dim>1</dim>
					<dim>1</dim>
					<dim>1</dim>
				</port>
			</input>
			<output>
				<port id="2" precision="FP16">
					<dim>32</dim>
					<dim>8</dim>
					<dim>1</dim>
					<dim>1</dim>
				</port>
			</output>
		</layer>
		<layer id="177" name="bottleneck1_3/dim_inc/conv" type="Convolution" version="opset1">
			<data auto_pad="explicit" dilations="1,1" pads_begin="0,0" pads_end="0,0" strides="1,1"/>
			<input>
				<port id="0">
					<dim>1</dim>
					<dim>8</dim>
					<dim>160</dim>
					<dim>272</dim>
				</port>
				<port id="1">
					<dim>32</dim>
					<dim>8</dim>
					<dim>1</dim>
					<dim>1</dim>
				</port>
			</input>
			<output>
				<port id="2" precision="FP16">
					<dim>1</dim>
					<dim>32</dim>
					<dim>160</dim>
					<dim>272</dim>
				</port>
			</output>
		</layer>
		<layer id="178" name="data_add_237202372524686/EltwiseUnsqueeze24986_const808_const" type="Const" version="opset1">
			<data element_type="f16" offset="3796" shape="1,32,1,1" size="64"/>
			<output>
				<port id="0" precision="FP16">
					<dim>1</dim>
					<dim>32</dim>
					<dim>1</dim>
					<dim>1</dim>
				</port>
			</output>
		</layer>
		<layer id="179" name="bottleneck1_3/dim_inc/bn/variance/Fused_Add_" type="Add" version="opset1">
			<data auto_broadcast="numpy"/>
			<input>
				<port id="0">
					<dim>1</dim>
					<dim>32</dim>
					<dim>160</dim>
					<dim>272</dim>
				</port>
				<port id="1">
					<dim>1</dim>
					<dim>32</dim>
					<dim>1</dim>
					<dim>1</dim>
				</port>
			</input>
			<output>
				<port id="2" names="bottleneck1_3/dim_inc/conv" precision="FP16">
					<dim>1</dim>
					<dim>32</dim>
					<dim>160</dim>
					<dim>272</dim>
				</port>
			</output>
		</layer>
		<layer id="180" name="51145118_const" type="Const" version="opset1">
			<data element_type="f16" offset="3860" shape="" size="2"/>
			<output>
				<port id="0" precision="FP16"/>
			</output>
		</layer>
		<layer id="181" name="51155119_const" type="Const" version="opset1">
			<data element_type="f16" offset="3862" shape="" size="2"/>
			<output>
				<port id="0" precision="FP16"/>
			</output>
		</layer>
		<layer id="182" name="51165120_const" type="Const" version="opset1">
			<data element_type="f16" offset="3860" shape="" size="2"/>
			<output>
				<port id="0" precision="FP16"/>
			</output>
		</layer>
		<layer id="183" name="51175121_const" type="Const" version="opset1">
			<data element_type="f16" offset="3862" shape="" size="2"/>
			<output>
				<port id="0" precision="FP16"/>
			</output>
		</layer>
		<layer id="184" name="bottleneck1_3/add/fq_input_1" type="FakeQuantize" version="opset1">
			<data auto_broadcast="numpy" levels="256"/>
			<input>
				<port id="0">
					<dim>1</dim>
					<dim>32</dim>
					<dim>160</dim>
					<dim>272</dim>
				</port>
				<port id="1"/>
				<port id="2"/>
				<port id="3"/>
				<port id="4"/>
			</input>
			<output>
				<port id="5" precision="FP16">
					<dim>1</dim>
					<dim>32</dim>
					<dim>160</dim>
					<dim>272</dim>
				</port>
			</output>
		</layer>
		<layer id="185" name="bottleneck1_3/add" type="Add" version="opset1">
			<data auto_broadcast="numpy"/>
			<input>
				<port id="0">
					<dim>1</dim>
					<dim>32</dim>
					<dim>160</dim>
					<dim>272</dim>
				</port>
				<port id="1">
					<dim>1</dim>
					<dim>32</dim>
					<dim>160</dim>
					<dim>272</dim>
				</port>
			</input>
			<output>
				<port id="2" names="bottleneck1_3/add" precision="FP16">
					<dim>1</dim>
					<dim>32</dim>
					<dim>160</dim>
					<dim>272</dim>
				</port>
			</output>
		</layer>
		<layer id="186" name="bottleneck1_3/fn/Cast_115583_const" type="Const" version="opset1">
			<data element_type="f32" offset="1380" shape="1" size="4"/>
			<output>
				<port id="0" precision="FP32">
					<dim>1</dim>
				</port>
			</output>
		</layer>
		<layer id="187" name="bottleneck1_3/fn" type="PReLU" version="opset1">
			<input>
				<port id="0">
					<dim>1</dim>
					<dim>32</dim>
					<dim>160</dim>
					<dim>272</dim>
				</port>
				<port id="1">
					<dim>1</dim>
				</port>
			</input>
			<output>
				<port id="2" names="bottleneck1_3/add" precision="FP16">
					<dim>1</dim>
					<dim>32</dim>
					<dim>160</dim>
					<dim>272</dim>
				</port>
			</output>
		</layer>
		<layer id="188" name="46444648_const" type="Const" version="opset1">
			<data element_type="f16" offset="3864" shape="" size="2"/>
			<output>
				<port id="0" precision="FP16"/>
			</output>
		</layer>
		<layer id="189" name="46454649_const" type="Const" version="opset1">
			<data element_type="f16" offset="3866" shape="" size="2"/>
			<output>
				<port id="0" precision="FP16"/>
			</output>
		</layer>
		<layer id="190" name="46464650_const" type="Const" version="opset1">
			<data element_type="f16" offset="3864" shape="" size="2"/>
			<output>
				<port id="0" precision="FP16"/>
			</output>
		</layer>
		<layer id="191" name="46474651_const" type="Const" version="opset1">
			<data element_type="f16" offset="3866" shape="" size="2"/>
			<output>
				<port id="0" precision="FP16"/>
			</output>
		</layer>
		<layer id="192" name="bottleneck1_4/add/fq_input_0" type="FakeQuantize" version="opset1">
			<data auto_broadcast="numpy" levels="256"/>
			<input>
				<port id="0">
					<dim>1</dim>
					<dim>32</dim>
					<dim>160</dim>
					<dim>272</dim>
				</port>
				<port id="1"/>
				<port id="2"/>
				<port id="3"/>
				<port id="4"/>
			</input>
			<output>
				<port id="5" precision="FP16">
					<dim>1</dim>
					<dim>32</dim>
					<dim>160</dim>
					<dim>272</dim>
				</port>
			</output>
		</layer>
		<layer id="193" name="bottleneck1_4/dim_red/bn/mean/Fused_Mul_2619226194_const81310109/quantized11800_const" type="Const" version="opset1">
			<data element_type="i8" offset="3868" shape="8,32,1,1" size="256"/>
			<output>
				<port id="0" precision="I8">
					<dim>8</dim>
					<dim>32</dim>
					<dim>1</dim>
					<dim>1</dim>
				</port>
			</output>
		</layer>
		<layer id="194" name="bottleneck1_4/dim_red/bn/mean/Fused_Mul_2619226194_const81310109/quantized/to_f16" type="Convert" version="opset1">
			<data destination_type="f16"/>
			<input>
				<port id="0">
					<dim>8</dim>
					<dim>32</dim>
					<dim>1</dim>
					<dim>1</dim>
				</port>
			</input>
			<output>
				<port id="1" precision="FP16">
					<dim>8</dim>
					<dim>32</dim>
					<dim>1</dim>
					<dim>1</dim>
				</port>
			</output>
		</layer>
		<layer id="195" name="bottleneck1_4/dim_red/conv/fq_weights_1/zero_point11813_const" type="Const" version="opset1">
			<data element_type="f16" offset="4124" shape="8,1,1,1" size="16"/>
			<output>
				<port id="0" precision="FP16">
					<dim>8</dim>
					<dim>1</dim>
					<dim>1</dim>
					<dim>1</dim>
				</port>
			</output>
		</layer>
		<layer id="196" name="bottleneck1_4/dim_red/conv/fq_weights_1/minus_zp" type="Subtract" version="opset1">
			<data auto_broadcast="numpy"/>
			<input>
				<port id="0">
					<dim>8</dim>
					<dim>32</dim>
					<dim>1</dim>
					<dim>1</dim>
				</port>
				<port id="1">
					<dim>8</dim>
					<dim>1</dim>
					<dim>1</dim>
					<dim>1</dim>
				</port>
			</input>
			<output>
				<port id="2" precision="FP16">
					<dim>8</dim>
					<dim>32</dim>
					<dim>1</dim>
					<dim>1</dim>
				</port>
			</output>
		</layer>
		<layer id="197" name="bottleneck1_4/dim_red/conv/fq_weights_1/scale11808_const" type="Const" version="opset1">
			<data element_type="f16" offset="4140" shape="8,1,1,1" size="16"/>
			<output>
				<port id="0" precision="FP16">
					<dim>8</dim>
					<dim>1</dim>
					<dim>1</dim>
					<dim>1</dim>
				</port>
			</output>
		</layer>
		<layer id="198" name="bottleneck1_4/dim_red/conv/fq_weights_1/mulpiply_by_scale" type="Multiply" version="opset1">
			<data auto_broadcast="numpy"/>
			<input>
				<port id="0">
					<dim>8</dim>
					<dim>32</dim>
					<dim>1</dim>
					<dim>1</dim>
				</port>
				<port id="1">
					<dim>8</dim>
					<dim>1</dim>
					<dim>1</dim>
					<dim>1</dim>
				</port>
			</input>
			<output>
				<port id="2" precision="FP16">
					<dim>8</dim>
					<dim>32</dim>
					<dim>1</dim>
					<dim>1</dim>
				</port>
			</output>
		</layer>
		<layer id="199" name="bottleneck1_4/dim_red/conv" type="Convolution" version="opset1">
			<data auto_pad="explicit" dilations="1,1" pads_begin="0,0" pads_end="0,0" strides="1,1"/>
			<input>
				<port id="0">
					<dim>1</dim>
					<dim>32</dim>
					<dim>160</dim>
					<dim>272</dim>
				</port>
				<port id="1">
					<dim>8</dim>
					<dim>32</dim>
					<dim>1</dim>
					<dim>1</dim>
				</port>
			</input>
			<output>
				<port id="2" precision="FP16">
					<dim>1</dim>
					<dim>8</dim>
					<dim>160</dim>
					<dim>272</dim>
				</port>
			</output>
		</layer>
		<layer id="200" name="data_add_237282373324688/EltwiseUnsqueeze24994_const815_const" type="Const" version="opset1">
			<data element_type="f16" offset="4156" shape="1,8,1,1" size="16"/>
			<output>
				<port id="0" precision="FP16">
					<dim>1</dim>
					<dim>8</dim>
					<dim>1</dim>
					<dim>1</dim>
				</port>
			</output>
		</layer>
		<layer id="201" name="bottleneck1_4/dim_red/bn/variance/Fused_Add_" type="Add" version="opset1">
			<data auto_broadcast="numpy"/>
			<input>
				<port id="0">
					<dim>1</dim>
					<dim>8</dim>
					<dim>160</dim>
					<dim>272</dim>
				</port>
				<port id="1">
					<dim>1</dim>
					<dim>8</dim>
					<dim>1</dim>
					<dim>1</dim>
				</port>
			</input>
			<output>
				<port id="2" names="bottleneck1_4/dim_red/conv" precision="FP16">
					<dim>1</dim>
					<dim>8</dim>
					<dim>160</dim>
					<dim>272</dim>
				</port>
			</output>
		</layer>
		<layer id="202" name="bottleneck1_4/dim_red/fn/Cast_115529_const" type="Const" version="opset1">
			<data element_type="f32" offset="1380" shape="1" size="4"/>
			<output>
				<port id="0" precision="FP32">
					<dim>1</dim>
				</port>
			</output>
		</layer>
		<layer id="203" name="bottleneck1_4/dim_red/fn" type="PReLU" version="opset1">
			<input>
				<port id="0">
					<dim>1</dim>
					<dim>8</dim>
					<dim>160</dim>
					<dim>272</dim>
				</port>
				<port id="1">
					<dim>1</dim>
				</port>
			</input>
			<output>
				<port id="2" names="bottleneck1_4/dim_red/conv" precision="FP16">
					<dim>1</dim>
					<dim>8</dim>
					<dim>160</dim>
					<dim>272</dim>
				</port>
			</output>
		</layer>
		<layer id="204" name="28042808_const" type="Const" version="opset1">
			<data element_type="f16" offset="4172" shape="1,8,1,1" size="16"/>
			<output>
				<port id="0" precision="FP16">
					<dim>1</dim>
					<dim>8</dim>
					<dim>1</dim>
					<dim>1</dim>
				</port>
			</output>
		</layer>
		<layer id="205" name="28052809_const" type="Const" version="opset1">
			<data element_type="f16" offset="4188" shape="1,8,1,1" size="16"/>
			<output>
				<port id="0" precision="FP16">
					<dim>1</dim>
					<dim>8</dim>
					<dim>1</dim>
					<dim>1</dim>
				</port>
			</output>
		</layer>
		<layer id="206" name="28062810_const" type="Const" version="opset1">
			<data element_type="f16" offset="4172" shape="1,8,1,1" size="16"/>
			<output>
				<port id="0" precision="FP16">
					<dim>1</dim>
					<dim>8</dim>
					<dim>1</dim>
					<dim>1</dim>
				</port>
			</output>
		</layer>
		<layer id="207" name="28072811_const" type="Const" version="opset1">
			<data element_type="f16" offset="4188" shape="1,8,1,1" size="16"/>
			<output>
				<port id="0" precision="FP16">
					<dim>1</dim>
					<dim>8</dim>
					<dim>1</dim>
					<dim>1</dim>
				</port>
			</output>
		</layer>
		<layer id="208" name="bottleneck1_4/inner/dw1/conv/fq_input_0" type="FakeQuantize" version="opset1">
			<data auto_broadcast="numpy" levels="256"/>
			<input>
				<port id="0">
					<dim>1</dim>
					<dim>8</dim>
					<dim>160</dim>
					<dim>272</dim>
				</port>
				<port id="1">
					<dim>1</dim>
					<dim>8</dim>
					<dim>1</dim>
					<dim>1</dim>
				</port>
				<port id="2">
					<dim>1</dim>
					<dim>8</dim>
					<dim>1</dim>
					<dim>1</dim>
				</port>
				<port id="3">
					<dim>1</dim>
					<dim>8</dim>
					<dim>1</dim>
					<dim>1</dim>
				</port>
				<port id="4">
					<dim>1</dim>
					<dim>8</dim>
					<dim>1</dim>
					<dim>1</dim>
				</port>
			</input>
			<output>
				<port id="5" precision="FP16">
					<dim>1</dim>
					<dim>8</dim>
					<dim>160</dim>
					<dim>272</dim>
				</port>
			</output>
		</layer>
		<layer id="209" name="3831338316_const81910112/quantized11488_const" type="Const" version="opset1">
			<data element_type="i8" offset="4204" shape="8,1,3,3" size="72"/>
			<output>
				<port id="0" precision="I8">
					<dim>8</dim>
					<dim>1</dim>
					<dim>3</dim>
					<dim>3</dim>
				</port>
			</output>
		</layer>
		<layer id="210" name="3831338316_const81910112/quantized/to_f16" type="Convert" version="opset1">
			<data destination_type="f16"/>
			<input>
				<port id="0">
					<dim>8</dim>
					<dim>1</dim>
					<dim>3</dim>
					<dim>3</dim>
				</port>
			</input>
			<output>
				<port id="1" precision="FP16">
					<dim>8</dim>
					<dim>1</dim>
					<dim>3</dim>
					<dim>3</dim>
				</port>
			</output>
		</layer>
		<layer id="211" name="bottleneck1_4/inner/dw1/conv/fq_weights_1/zero_point11501_const" type="Const" version="opset1">
			<data element_type="f16" offset="4276" shape="8,1,1,1" size="16"/>
			<output>
				<port id="0" precision="FP16">
					<dim>8</dim>
					<dim>1</dim>
					<dim>1</dim>
					<dim>1</dim>
				</port>
			</output>
		</layer>
		<layer id="212" name="bottleneck1_4/inner/dw1/conv/fq_weights_1/minus_zp" type="Subtract" version="opset1">
			<data auto_broadcast="numpy"/>
			<input>
				<port id="0">
					<dim>8</dim>
					<dim>1</dim>
					<dim>3</dim>
					<dim>3</dim>
				</port>
				<port id="1">
					<dim>8</dim>
					<dim>1</dim>
					<dim>1</dim>
					<dim>1</dim>
				</port>
			</input>
			<output>
				<port id="2" precision="FP16">
					<dim>8</dim>
					<dim>1</dim>
					<dim>3</dim>
					<dim>3</dim>
				</port>
			</output>
		</layer>
		<layer id="213" name="bottleneck1_4/inner/dw1/conv/fq_weights_1/scale11496_const" type="Const" version="opset1">
			<data element_type="f16" offset="4292" shape="8,1,1,1" size="16"/>
			<output>
				<port id="0" precision="FP16">
					<dim>8</dim>
					<dim>1</dim>
					<dim>1</dim>
					<dim>1</dim>
				</port>
			</output>
		</layer>
		<layer id="214" name="bottleneck1_4/inner/dw1/conv/fq_weights_1/mulpiply_by_scale" type="Multiply" version="opset1">
			<data auto_broadcast="numpy"/>
			<input>
				<port id="0">
					<dim>8</dim>
					<dim>1</dim>
					<dim>3</dim>
					<dim>3</dim>
				</port>
				<port id="1">
					<dim>8</dim>
					<dim>1</dim>
					<dim>1</dim>
					<dim>1</dim>
				</port>
			</input>
			<output>
				<port id="2" precision="FP16">
					<dim>8</dim>
					<dim>1</dim>
					<dim>3</dim>
					<dim>3</dim>
				</port>
			</output>
		</layer>
		<layer id="215" name="16807/value16809_const" type="Const" version="opset1">
			<data element_type="i64" offset="1520" shape="5" size="40"/>
			<output>
				<port id="0" precision="I64">
					<dim>5</dim>
				</port>
			</output>
		</layer>
		<layer id="216" name="16807" type="Reshape" version="opset1">
			<data special_zero="true"/>
			<input>
				<port id="0">
					<dim>8</dim>
					<dim>1</dim>
					<dim>3</dim>
					<dim>3</dim>
				</port>
				<port id="1">
					<dim>5</dim>
				</port>
			</input>
			<output>
				<port id="2" precision="FP16">
					<dim>8</dim>
					<dim>1</dim>
					<dim>1</dim>
					<dim>3</dim>
					<dim>3</dim>
				</port>
			</output>
		</layer>
		<layer id="217" name="bottleneck1_4/inner/dw1/conv" type="GroupConvolution" version="opset1">
			<data auto_pad="explicit" dilations="1,1" pads_begin="1,1" pads_end="1,1" strides="1,1"/>
			<input>
				<port id="0">
					<dim>1</dim>
					<dim>8</dim>
					<dim>160</dim>
					<dim>272</dim>
				</port>
				<port id="1">
					<dim>8</dim>
					<dim>1</dim>
					<dim>1</dim>
					<dim>3</dim>
					<dim>3</dim>
				</port>
			</input>
			<output>
				<port id="2" precision="FP16">
					<dim>1</dim>
					<dim>8</dim>
					<dim>160</dim>
					<dim>272</dim>
				</port>
			</output>
		</layer>
		<layer id="218" name="data_add_237362374124690/EltwiseUnsqueeze25002_const821_const" type="Const" version="opset1">
			<data element_type="f16" offset="4308" shape="1,8,1,1" size="16"/>
			<output>
				<port id="0" precision="FP16">
					<dim>1</dim>
					<dim>8</dim>
					<dim>1</dim>
					<dim>1</dim>
				</port>
			</output>
		</layer>
		<layer id="219" name="bottleneck1_4/inner/dw1/bn/variance/Fused_Add_" type="Add" version="opset1">
			<data auto_broadcast="numpy"/>
			<input>
				<port id="0">
					<dim>1</dim>
					<dim>8</dim>
					<dim>160</dim>
					<dim>272</dim>
				</port>
				<port id="1">
					<dim>1</dim>
					<dim>8</dim>
					<dim>1</dim>
					<dim>1</dim>
				</port>
			</input>
			<output>
				<port id="2" names="bottleneck1_4/inner/dw1/conv" precision="FP16">
					<dim>1</dim>
					<dim>8</dim>
					<dim>160</dim>
					<dim>272</dim>
				</port>
			</output>
		</layer>
		<layer id="220" name="bottleneck1_4/inner/dw1/fn/Cast_115591_const" type="Const" version="opset1">
			<data element_type="f32" offset="1380" shape="1" size="4"/>
			<output>
				<port id="0" precision="FP32">
					<dim>1</dim>
				</port>
			</output>
		</layer>
		<layer id="221" name="bottleneck1_4/inner/dw1/fn" type="PReLU" version="opset1">
			<input>
				<port id="0">
					<dim>1</dim>
					<dim>8</dim>
					<dim>160</dim>
					<dim>272</dim>
				</port>
				<port id="1">
					<dim>1</dim>
				</port>
			</input>
			<output>
				<port id="2" names="bottleneck1_4/inner/dw1/conv" precision="FP16">
					<dim>1</dim>
					<dim>8</dim>
					<dim>160</dim>
					<dim>272</dim>
				</port>
			</output>
		</layer>
		<layer id="222" name="53845388_const" type="Const" version="opset1">
			<data element_type="f16" offset="4324" shape="" size="2"/>
			<output>
				<port id="0" precision="FP16"/>
			</output>
		</layer>
		<layer id="223" name="53855389_const" type="Const" version="opset1">
			<data element_type="f16" offset="4326" shape="" size="2"/>
			<output>
				<port id="0" precision="FP16"/>
			</output>
		</layer>
		<layer id="224" name="53865390_const" type="Const" version="opset1">
			<data element_type="f16" offset="4324" shape="" size="2"/>
			<output>
				<port id="0" precision="FP16"/>
			</output>
		</layer>
		<layer id="225" name="53875391_const" type="Const" version="opset1">
			<data element_type="f16" offset="4326" shape="" size="2"/>
			<output>
				<port id="0" precision="FP16"/>
			</output>
		</layer>
		<layer id="226" name="bottleneck1_4/dim_inc/conv/fq_input_0" type="FakeQuantize" version="opset1">
			<data auto_broadcast="numpy" levels="256"/>
			<input>
				<port id="0">
					<dim>1</dim>
					<dim>8</dim>
					<dim>160</dim>
					<dim>272</dim>
				</port>
				<port id="1"/>
				<port id="2"/>
				<port id="3"/>
				<port id="4"/>
			</input>
			<output>
				<port id="5" precision="FP16">
					<dim>1</dim>
					<dim>8</dim>
					<dim>160</dim>
					<dim>272</dim>
				</port>
			</output>
		</layer>
		<layer id="227" name="bottleneck1_4/dim_inc/bn/mean/Fused_Mul_2620026202_const82510115/quantized13504_const" type="Const" version="opset1">
			<data element_type="i8" offset="4328" shape="32,8,1,1" size="256"/>
			<output>
				<port id="0" precision="I8">
					<dim>32</dim>
					<dim>8</dim>
					<dim>1</dim>
					<dim>1</dim>
				</port>
			</output>
		</layer>
		<layer id="228" name="bottleneck1_4/dim_inc/bn/mean/Fused_Mul_2620026202_const82510115/quantized/to_f16" type="Convert" version="opset1">
			<data destination_type="f16"/>
			<input>
				<port id="0">
					<dim>32</dim>
					<dim>8</dim>
					<dim>1</dim>
					<dim>1</dim>
				</port>
			</input>
			<output>
				<port id="1" precision="FP16">
					<dim>32</dim>
					<dim>8</dim>
					<dim>1</dim>
					<dim>1</dim>
				</port>
			</output>
		</layer>
		<layer id="229" name="bottleneck1_4/dim_inc/conv/fq_weights_1/zero_point13517_const" type="Const" version="opset1">
			<data element_type="f16" offset="4584" shape="32,1,1,1" size="64"/>
			<output>
				<port id="0" precision="FP16">
					<dim>32</dim>
					<dim>1</dim>
					<dim>1</dim>
					<dim>1</dim>
				</port>
			</output>
		</layer>
		<layer id="230" name="bottleneck1_4/dim_inc/conv/fq_weights_1/minus_zp" type="Subtract" version="opset1">
			<data auto_broadcast="numpy"/>
			<input>
				<port id="0">
					<dim>32</dim>
					<dim>8</dim>
					<dim>1</dim>
					<dim>1</dim>
				</port>
				<port id="1">
					<dim>32</dim>
					<dim>1</dim>
					<dim>1</dim>
					<dim>1</dim>
				</port>
			</input>
			<output>
				<port id="2" precision="FP16">
					<dim>32</dim>
					<dim>8</dim>
					<dim>1</dim>
					<dim>1</dim>
				</port>
			</output>
		</layer>
		<layer id="231" name="bottleneck1_4/dim_inc/conv/fq_weights_1/scale13512_const" type="Const" version="opset1">
			<data element_type="f16" offset="4648" shape="32,1,1,1" size="64"/>
			<output>
				<port id="0" precision="FP16">
					<dim>32</dim>
					<dim>1</dim>
					<dim>1</dim>
					<dim>1</dim>
				</port>
			</output>
		</layer>
		<layer id="232" name="bottleneck1_4/dim_inc/conv/fq_weights_1/mulpiply_by_scale" type="Multiply" version="opset1">
			<data auto_broadcast="numpy"/>
			<input>
				<port id="0">
					<dim>32</dim>
					<dim>8</dim>
					<dim>1</dim>
					<dim>1</dim>
				</port>
				<port id="1">
					<dim>32</dim>
					<dim>1</dim>
					<dim>1</dim>
					<dim>1</dim>
				</port>
			</input>
			<output>
				<port id="2" precision="FP16">
					<dim>32</dim>
					<dim>8</dim>
					<dim>1</dim>
					<dim>1</dim>
				</port>
			</output>
		</layer>
		<layer id="233" name="bottleneck1_4/dim_inc/conv" type="Convolution" version="opset1">
			<data auto_pad="explicit" dilations="1,1" pads_begin="0,0" pads_end="0,0" strides="1,1"/>
			<input>
				<port id="0">
					<dim>1</dim>
					<dim>8</dim>
					<dim>160</dim>
					<dim>272</dim>
				</port>
				<port id="1">
					<dim>32</dim>
					<dim>8</dim>
					<dim>1</dim>
					<dim>1</dim>
				</port>
			</input>
			<output>
				<port id="2" precision="FP16">
					<dim>1</dim>
					<dim>32</dim>
					<dim>160</dim>
					<dim>272</dim>
				</port>
			</output>
		</layer>
		<layer id="234" name="data_add_237442374924692/EltwiseUnsqueeze25010_const827_const" type="Const" version="opset1">
			<data element_type="f16" offset="4712" shape="1,32,1,1" size="64"/>
			<output>
				<port id="0" precision="FP16">
					<dim>1</dim>
					<dim>32</dim>
					<dim>1</dim>
					<dim>1</dim>
				</port>
			</output>
		</layer>
		<layer id="235" name="bottleneck1_4/dim_inc/bn/variance/Fused_Add_" type="Add" version="opset1">
			<data auto_broadcast="numpy"/>
			<input>
				<port id="0">
					<dim>1</dim>
					<dim>32</dim>
					<dim>160</dim>
					<dim>272</dim>
				</port>
				<port id="1">
					<dim>1</dim>
					<dim>32</dim>
					<dim>1</dim>
					<dim>1</dim>
				</port>
			</input>
			<output>
				<port id="2" names="bottleneck1_4/dim_inc/conv" precision="FP16">
					<dim>1</dim>
					<dim>32</dim>
					<dim>160</dim>
					<dim>272</dim>
				</port>
			</output>
		</layer>
		<layer id="236" name="46544658_const" type="Const" version="opset1">
			<data element_type="f16" offset="4776" shape="" size="2"/>
			<output>
				<port id="0" precision="FP16"/>
			</output>
		</layer>
		<layer id="237" name="46554659_const" type="Const" version="opset1">
			<data element_type="f16" offset="4778" shape="" size="2"/>
			<output>
				<port id="0" precision="FP16"/>
			</output>
		</layer>
		<layer id="238" name="46564660_const" type="Const" version="opset1">
			<data element_type="f16" offset="4776" shape="" size="2"/>
			<output>
				<port id="0" precision="FP16"/>
			</output>
		</layer>
		<layer id="239" name="46574661_const" type="Const" version="opset1">
			<data element_type="f16" offset="4778" shape="" size="2"/>
			<output>
				<port id="0" precision="FP16"/>
			</output>
		</layer>
		<layer id="240" name="bottleneck1_4/add/fq_input_1" type="FakeQuantize" version="opset1">
			<data auto_broadcast="numpy" levels="256"/>
			<input>
				<port id="0">
					<dim>1</dim>
					<dim>32</dim>
					<dim>160</dim>
					<dim>272</dim>
				</port>
				<port id="1"/>
				<port id="2"/>
				<port id="3"/>
				<port id="4"/>
			</input>
			<output>
				<port id="5" precision="FP16">
					<dim>1</dim>
					<dim>32</dim>
					<dim>160</dim>
					<dim>272</dim>
				</port>
			</output>
		</layer>
		<layer id="241" name="bottleneck1_4/add" type="Add" version="opset1">
			<data auto_broadcast="numpy"/>
			<input>
				<port id="0">
					<dim>1</dim>
					<dim>32</dim>
					<dim>160</dim>
					<dim>272</dim>
				</port>
				<port id="1">
					<dim>1</dim>
					<dim>32</dim>
					<dim>160</dim>
					<dim>272</dim>
				</port>
			</input>
			<output>
				<port id="2" names="bottleneck1_4/add" precision="FP16">
					<dim>1</dim>
					<dim>32</dim>
					<dim>160</dim>
					<dim>272</dim>
				</port>
			</output>
		</layer>
		<layer id="242" name="bottleneck1_4/fn/Cast_115515_const" type="Const" version="opset1">
			<data element_type="f32" offset="1380" shape="1" size="4"/>
			<output>
				<port id="0" precision="FP32">
					<dim>1</dim>
				</port>
			</output>
		</layer>
		<layer id="243" name="bottleneck1_4/fn" type="PReLU" version="opset1">
			<input>
				<port id="0">
					<dim>1</dim>
					<dim>32</dim>
					<dim>160</dim>
					<dim>272</dim>
				</port>
				<port id="1">
					<dim>1</dim>
				</port>
			</input>
			<output>
				<port id="2" names="bottleneck1_4/add" precision="FP16">
					<dim>1</dim>
					<dim>32</dim>
					<dim>160</dim>
					<dim>272</dim>
				</port>
			</output>
		</layer>
		<layer id="244" name="33843388_const" type="Const" version="opset1">
			<data element_type="f16" offset="4780" shape="" size="2"/>
			<output>
				<port id="0" precision="FP16"/>
			</output>
		</layer>
		<layer id="245" name="33853389_const" type="Const" version="opset1">
			<data element_type="f16" offset="4782" shape="" size="2"/>
			<output>
				<port id="0" precision="FP16"/>
			</output>
		</layer>
		<layer id="246" name="33863390_const" type="Const" version="opset1">
			<data element_type="f16" offset="4780" shape="" size="2"/>
			<output>
				<port id="0" precision="FP16"/>
			</output>
		</layer>
		<layer id="247" name="33873391_const" type="Const" version="opset1">
			<data element_type="f16" offset="4782" shape="" size="2"/>
			<output>
				<port id="0" precision="FP16"/>
			</output>
		</layer>
		<layer id="248" name="bottleneck2_0/dim_red/conv/fq_input_0" type="FakeQuantize" version="opset1">
			<data auto_broadcast="numpy" levels="256"/>
			<input>
				<port id="0">
					<dim>1</dim>
					<dim>32</dim>
					<dim>160</dim>
					<dim>272</dim>
				</port>
				<port id="1"/>
				<port id="2"/>
				<port id="3"/>
				<port id="4"/>
			</input>
			<output>
				<port id="5" precision="FP16">
					<dim>1</dim>
					<dim>32</dim>
					<dim>160</dim>
					<dim>272</dim>
				</port>
			</output>
		</layer>
		<layer id="249" name="bottleneck2_0/skip/pooling" type="MaxPool" version="opset1">
			<data auto_pad="explicit" kernel="2,2" pads_begin="0,0" pads_end="0,0" rounding_type="ceil" strides="2,2"/>
			<input>
				<port id="0">
					<dim>1</dim>
					<dim>32</dim>
					<dim>160</dim>
					<dim>272</dim>
				</port>
			</input>
			<output>
				<port id="1" names="bottleneck2_0/skip/pooling" precision="FP16">
					<dim>1</dim>
					<dim>32</dim>
					<dim>80</dim>
					<dim>136</dim>
				</port>
			</output>
		</layer>
		<layer id="250" name="bottleneck2_0/skip/bn/mean/Fused_Mul_2620426206_const83310118/quantized13744_const" type="Const" version="opset1">
			<data element_type="i8" offset="4784" shape="64,32,1,1" size="2048"/>
			<output>
				<port id="0" precision="I8">
					<dim>64</dim>
					<dim>32</dim>
					<dim>1</dim>
					<dim>1</dim>
				</port>
			</output>
		</layer>
		<layer id="251" name="bottleneck2_0/skip/bn/mean/Fused_Mul_2620426206_const83310118/quantized/to_f16" type="Convert" version="opset1">
			<data destination_type="f16"/>
			<input>
				<port id="0">
					<dim>64</dim>
					<dim>32</dim>
					<dim>1</dim>
					<dim>1</dim>
				</port>
			</input>
			<output>
				<port id="1" precision="FP16">
					<dim>64</dim>
					<dim>32</dim>
					<dim>1</dim>
					<dim>1</dim>
				</port>
			</output>
		</layer>
		<layer id="252" name="bottleneck2_0/skip/conv/fq_weights_1/zero_point13757_const" type="Const" version="opset1">
			<data element_type="f16" offset="6832" shape="64,1,1,1" size="128"/>
			<output>
				<port id="0" precision="FP16">
					<dim>64</dim>
					<dim>1</dim>
					<dim>1</dim>
					<dim>1</dim>
				</port>
			</output>
		</layer>
		<layer id="253" name="bottleneck2_0/skip/conv/fq_weights_1/minus_zp" type="Subtract" version="opset1">
			<data auto_broadcast="numpy"/>
			<input>
				<port id="0">
					<dim>64</dim>
					<dim>32</dim>
					<dim>1</dim>
					<dim>1</dim>
				</port>
				<port id="1">
					<dim>64</dim>
					<dim>1</dim>
					<dim>1</dim>
					<dim>1</dim>
				</port>
			</input>
			<output>
				<port id="2" precision="FP16">
					<dim>64</dim>
					<dim>32</dim>
					<dim>1</dim>
					<dim>1</dim>
				</port>
			</output>
		</layer>
		<layer id="254" name="bottleneck2_0/skip/conv/fq_weights_1/scale13752_const" type="Const" version="opset1">
			<data element_type="f16" offset="6960" shape="64,1,1,1" size="128"/>
			<output>
				<port id="0" precision="FP16">
					<dim>64</dim>
					<dim>1</dim>
					<dim>1</dim>
					<dim>1</dim>
				</port>
			</output>
		</layer>
		<layer id="255" name="bottleneck2_0/skip/conv/fq_weights_1/mulpiply_by_scale" type="Multiply" version="opset1">
			<data auto_broadcast="numpy"/>
			<input>
				<port id="0">
					<dim>64</dim>
					<dim>32</dim>
					<dim>1</dim>
					<dim>1</dim>
				</port>
				<port id="1">
					<dim>64</dim>
					<dim>1</dim>
					<dim>1</dim>
					<dim>1</dim>
				</port>
			</input>
			<output>
				<port id="2" precision="FP16">
					<dim>64</dim>
					<dim>32</dim>
					<dim>1</dim>
					<dim>1</dim>
				</port>
			</output>
		</layer>
		<layer id="256" name="bottleneck2_0/skip/conv" type="Convolution" version="opset1">
			<data auto_pad="explicit" dilations="1,1" pads_begin="0,0" pads_end="0,0" strides="1,1"/>
			<input>
				<port id="0">
					<dim>1</dim>
					<dim>32</dim>
					<dim>80</dim>
					<dim>136</dim>
				</port>
				<port id="1">
					<dim>64</dim>
					<dim>32</dim>
					<dim>1</dim>
					<dim>1</dim>
				</port>
			</input>
			<output>
				<port id="2" precision="FP16">
					<dim>1</dim>
					<dim>64</dim>
					<dim>80</dim>
					<dim>136</dim>
				</port>
			</output>
		</layer>
		<layer id="257" name="data_add_237522375724694/EltwiseUnsqueeze25018_const835_const" type="Const" version="opset1">
			<data element_type="f16" offset="7088" shape="1,64,1,1" size="128"/>
			<output>
				<port id="0" precision="FP16">
					<dim>1</dim>
					<dim>64</dim>
					<dim>1</dim>
					<dim>1</dim>
				</port>
			</output>
		</layer>
		<layer id="258" name="bottleneck2_0/skip/bn/variance/Fused_Add_" type="Add" version="opset1">
			<data auto_broadcast="numpy"/>
			<input>
				<port id="0">
					<dim>1</dim>
					<dim>64</dim>
					<dim>80</dim>
					<dim>136</dim>
				</port>
				<port id="1">
					<dim>1</dim>
					<dim>64</dim>
					<dim>1</dim>
					<dim>1</dim>
				</port>
			</input>
			<output>
				<port id="2" names="bottleneck2_0/skip/conv" precision="FP16">
					<dim>1</dim>
					<dim>64</dim>
					<dim>80</dim>
					<dim>136</dim>
				</port>
			</output>
		</layer>
		<layer id="259" name="29442948_const" type="Const" version="opset1">
			<data element_type="f16" offset="7216" shape="" size="2"/>
			<output>
				<port id="0" precision="FP16"/>
			</output>
		</layer>
		<layer id="260" name="29452949_const" type="Const" version="opset1">
			<data element_type="f16" offset="7218" shape="" size="2"/>
			<output>
				<port id="0" precision="FP16"/>
			</output>
		</layer>
		<layer id="261" name="29462950_const" type="Const" version="opset1">
			<data element_type="f16" offset="7216" shape="" size="2"/>
			<output>
				<port id="0" precision="FP16"/>
			</output>
		</layer>
		<layer id="262" name="29472951_const" type="Const" version="opset1">
			<data element_type="f16" offset="7218" shape="" size="2"/>
			<output>
				<port id="0" precision="FP16"/>
			</output>
		</layer>
		<layer id="263" name="bottleneck2_0/add/fq_input_0" type="FakeQuantize" version="opset1">
			<data auto_broadcast="numpy" levels="256"/>
			<input>
				<port id="0">
					<dim>1</dim>
					<dim>64</dim>
					<dim>80</dim>
					<dim>136</dim>
				</port>
				<port id="1"/>
				<port id="2"/>
				<port id="3"/>
				<port id="4"/>
			</input>
			<output>
				<port id="5" precision="FP16">
					<dim>1</dim>
					<dim>64</dim>
					<dim>80</dim>
					<dim>136</dim>
				</port>
			</output>
		</layer>
		<layer id="264" name="bottleneck2_0/dim_red/bn/mean/Fused_Mul_2620826210_const83710120/quantized11560_const" type="Const" version="opset1">
			<data element_type="i8" offset="7220" shape="16,32,1,1" size="512"/>
			<output>
				<port id="0" precision="I8">
					<dim>16</dim>
					<dim>32</dim>
					<dim>1</dim>
					<dim>1</dim>
				</port>
			</output>
		</layer>
		<layer id="265" name="bottleneck2_0/dim_red/bn/mean/Fused_Mul_2620826210_const83710120/quantized/to_f16" type="Convert" version="opset1">
			<data destination_type="f16"/>
			<input>
				<port id="0">
					<dim>16</dim>
					<dim>32</dim>
					<dim>1</dim>
					<dim>1</dim>
				</port>
			</input>
			<output>
				<port id="1" precision="FP16">
					<dim>16</dim>
					<dim>32</dim>
					<dim>1</dim>
					<dim>1</dim>
				</port>
			</output>
		</layer>
		<layer id="266" name="bottleneck2_0/dim_red/conv/fq_weights_1/zero_point11573_const" type="Const" version="opset1">
			<data element_type="f16" offset="7732" shape="16,1,1,1" size="32"/>
			<output>
				<port id="0" precision="FP16">
					<dim>16</dim>
					<dim>1</dim>
					<dim>1</dim>
					<dim>1</dim>
				</port>
			</output>
		</layer>
		<layer id="267" name="bottleneck2_0/dim_red/conv/fq_weights_1/minus_zp" type="Subtract" version="opset1">
			<data auto_broadcast="numpy"/>
			<input>
				<port id="0">
					<dim>16</dim>
					<dim>32</dim>
					<dim>1</dim>
					<dim>1</dim>
				</port>
				<port id="1">
					<dim>16</dim>
					<dim>1</dim>
					<dim>1</dim>
					<dim>1</dim>
				</port>
			</input>
			<output>
				<port id="2" precision="FP16">
					<dim>16</dim>
					<dim>32</dim>
					<dim>1</dim>
					<dim>1</dim>
				</port>
			</output>
		</layer>
		<layer id="268" name="bottleneck2_0/dim_red/conv/fq_weights_1/scale11568_const" type="Const" version="opset1">
			<data element_type="f16" offset="7764" shape="16,1,1,1" size="32"/>
			<output>
				<port id="0" precision="FP16">
					<dim>16</dim>
					<dim>1</dim>
					<dim>1</dim>
					<dim>1</dim>
				</port>
			</output>
		</layer>
		<layer id="269" name="bottleneck2_0/dim_red/conv/fq_weights_1/mulpiply_by_scale" type="Multiply" version="opset1">
			<data auto_broadcast="numpy"/>
			<input>
				<port id="0">
					<dim>16</dim>
					<dim>32</dim>
					<dim>1</dim>
					<dim>1</dim>
				</port>
				<port id="1">
					<dim>16</dim>
					<dim>1</dim>
					<dim>1</dim>
					<dim>1</dim>
				</port>
			</input>
			<output>
				<port id="2" precision="FP16">
					<dim>16</dim>
					<dim>32</dim>
					<dim>1</dim>
					<dim>1</dim>
				</port>
			</output>
		</layer>
		<layer id="270" name="bottleneck2_0/dim_red/conv" type="Convolution" version="opset1">
			<data auto_pad="explicit" dilations="1,1" pads_begin="0,0" pads_end="0,0" strides="1,1"/>
			<input>
				<port id="0">
					<dim>1</dim>
					<dim>32</dim>
					<dim>160</dim>
					<dim>272</dim>
				</port>
				<port id="1">
					<dim>16</dim>
					<dim>32</dim>
					<dim>1</dim>
					<dim>1</dim>
				</port>
			</input>
			<output>
				<port id="2" precision="FP16">
					<dim>1</dim>
					<dim>16</dim>
					<dim>160</dim>
					<dim>272</dim>
				</port>
			</output>
		</layer>
		<layer id="271" name="data_add_237602376524696/EltwiseUnsqueeze25026_const839_const" type="Const" version="opset1">
			<data element_type="f16" offset="7796" shape="1,16,1,1" size="32"/>
			<output>
				<port id="0" precision="FP16">
					<dim>1</dim>
					<dim>16</dim>
					<dim>1</dim>
					<dim>1</dim>
				</port>
			</output>
		</layer>
		<layer id="272" name="bottleneck2_0/dim_red/bn/variance/Fused_Add_" type="Add" version="opset1">
			<data auto_broadcast="numpy"/>
			<input>
				<port id="0">
					<dim>1</dim>
					<dim>16</dim>
					<dim>160</dim>
					<dim>272</dim>
				</port>
				<port id="1">
					<dim>1</dim>
					<dim>16</dim>
					<dim>1</dim>
					<dim>1</dim>
				</port>
			</input>
			<output>
				<port id="2" names="bottleneck2_0/dim_red/conv" precision="FP16">
					<dim>1</dim>
					<dim>16</dim>
					<dim>160</dim>
					<dim>272</dim>
				</port>
			</output>
		</layer>
		<layer id="273" name="bottleneck2_0/dim_red/fn/Cast_115421_const" type="Const" version="opset1">
			<data element_type="f32" offset="1380" shape="1" size="4"/>
			<output>
				<port id="0" precision="FP32">
					<dim>1</dim>
				</port>
			</output>
		</layer>
		<layer id="274" name="bottleneck2_0/dim_red/fn" type="PReLU" version="opset1">
			<input>
				<port id="0">
					<dim>1</dim>
					<dim>16</dim>
					<dim>160</dim>
					<dim>272</dim>
				</port>
				<port id="1">
					<dim>1</dim>
				</port>
			</input>
			<output>
				<port id="2" names="bottleneck2_0/dim_red/conv" precision="FP16">
					<dim>1</dim>
					<dim>16</dim>
					<dim>160</dim>
					<dim>272</dim>
				</port>
			</output>
		</layer>
		<layer id="275" name="40644068_const" type="Const" version="opset1">
			<data element_type="f16" offset="7828" shape="1,16,1,1" size="32"/>
			<output>
				<port id="0" precision="FP16">
					<dim>1</dim>
					<dim>16</dim>
					<dim>1</dim>
					<dim>1</dim>
				</port>
			</output>
		</layer>
		<layer id="276" name="40654069_const" type="Const" version="opset1">
			<data element_type="f16" offset="7860" shape="1,16,1,1" size="32"/>
			<output>
				<port id="0" precision="FP16">
					<dim>1</dim>
					<dim>16</dim>
					<dim>1</dim>
					<dim>1</dim>
				</port>
			</output>
		</layer>
		<layer id="277" name="40664070_const" type="Const" version="opset1">
			<data element_type="f16" offset="7828" shape="1,16,1,1" size="32"/>
			<output>
				<port id="0" precision="FP16">
					<dim>1</dim>
					<dim>16</dim>
					<dim>1</dim>
					<dim>1</dim>
				</port>
			</output>
		</layer>
		<layer id="278" name="40674071_const" type="Const" version="opset1">
			<data element_type="f16" offset="7860" shape="1,16,1,1" size="32"/>
			<output>
				<port id="0" precision="FP16">
					<dim>1</dim>
					<dim>16</dim>
					<dim>1</dim>
					<dim>1</dim>
				</port>
			</output>
		</layer>
		<layer id="279" name="bottleneck2_0/inner/dw1/conv/fq_input_0" type="FakeQuantize" version="opset1">
			<data auto_broadcast="numpy" levels="256"/>
			<input>
				<port id="0">
					<dim>1</dim>
					<dim>16</dim>
					<dim>160</dim>
					<dim>272</dim>
				</port>
				<port id="1">
					<dim>1</dim>
					<dim>16</dim>
					<dim>1</dim>
					<dim>1</dim>
				</port>
				<port id="2">
					<dim>1</dim>
					<dim>16</dim>
					<dim>1</dim>
					<dim>1</dim>
				</port>
				<port id="3">
					<dim>1</dim>
					<dim>16</dim>
					<dim>1</dim>
					<dim>1</dim>
				</port>
				<port id="4">
					<dim>1</dim>
					<dim>16</dim>
					<dim>1</dim>
					<dim>1</dim>
				</port>
			</input>
			<output>
				<port id="5" precision="FP16">
					<dim>1</dim>
					<dim>16</dim>
					<dim>160</dim>
					<dim>272</dim>
				</port>
			</output>
		</layer>
		<layer id="280" name="3836138364_const84310123/quantized13552_const" type="Const" version="opset1">
			<data element_type="i8" offset="7892" shape="16,1,3,3" size="144"/>
			<output>
				<port id="0" precision="I8">
					<dim>16</dim>
					<dim>1</dim>
					<dim>3</dim>
					<dim>3</dim>
				</port>
			</output>
		</layer>
		<layer id="281" name="3836138364_const84310123/quantized/to_f16" type="Convert" version="opset1">
			<data destination_type="f16"/>
			<input>
				<port id="0">
					<dim>16</dim>
					<dim>1</dim>
					<dim>3</dim>
					<dim>3</dim>
				</port>
			</input>
			<output>
				<port id="1" precision="FP16">
					<dim>16</dim>
					<dim>1</dim>
					<dim>3</dim>
					<dim>3</dim>
				</port>
			</output>
		</layer>
		<layer id="282" name="bottleneck2_0/inner/dw1/conv/fq_weights_1/zero_point13565_const" type="Const" version="opset1">
			<data element_type="f16" offset="8036" shape="16,1,1,1" size="32"/>
			<output>
				<port id="0" precision="FP16">
					<dim>16</dim>
					<dim>1</dim>
					<dim>1</dim>
					<dim>1</dim>
				</port>
			</output>
		</layer>
		<layer id="283" name="bottleneck2_0/inner/dw1/conv/fq_weights_1/minus_zp" type="Subtract" version="opset1">
			<data auto_broadcast="numpy"/>
			<input>
				<port id="0">
					<dim>16</dim>
					<dim>1</dim>
					<dim>3</dim>
					<dim>3</dim>
				</port>
				<port id="1">
					<dim>16</dim>
					<dim>1</dim>
					<dim>1</dim>
					<dim>1</dim>
				</port>
			</input>
			<output>
				<port id="2" precision="FP16">
					<dim>16</dim>
					<dim>1</dim>
					<dim>3</dim>
					<dim>3</dim>
				</port>
			</output>
		</layer>
		<layer id="284" name="bottleneck2_0/inner/dw1/conv/fq_weights_1/scale13560_const" type="Const" version="opset1">
			<data element_type="f16" offset="8068" shape="16,1,1,1" size="32"/>
			<output>
				<port id="0" precision="FP16">
					<dim>16</dim>
					<dim>1</dim>
					<dim>1</dim>
					<dim>1</dim>
				</port>
			</output>
		</layer>
		<layer id="285" name="bottleneck2_0/inner/dw1/conv/fq_weights_1/mulpiply_by_scale" type="Multiply" version="opset1">
			<data auto_broadcast="numpy"/>
			<input>
				<port id="0">
					<dim>16</dim>
					<dim>1</dim>
					<dim>3</dim>
					<dim>3</dim>
				</port>
				<port id="1">
					<dim>16</dim>
					<dim>1</dim>
					<dim>1</dim>
					<dim>1</dim>
				</port>
			</input>
			<output>
				<port id="2" precision="FP16">
					<dim>16</dim>
					<dim>1</dim>
					<dim>3</dim>
					<dim>3</dim>
				</port>
			</output>
		</layer>
		<layer id="286" name="16871/value16873_const" type="Const" version="opset1">
			<data element_type="i64" offset="8100" shape="5" size="40"/>
			<output>
				<port id="0" precision="I64">
					<dim>5</dim>
				</port>
			</output>
		</layer>
		<layer id="287" name="16871" type="Reshape" version="opset1">
			<data special_zero="true"/>
			<input>
				<port id="0">
					<dim>16</dim>
					<dim>1</dim>
					<dim>3</dim>
					<dim>3</dim>
				</port>
				<port id="1">
					<dim>5</dim>
				</port>
			</input>
			<output>
				<port id="2" precision="FP16">
					<dim>16</dim>
					<dim>1</dim>
					<dim>1</dim>
					<dim>3</dim>
					<dim>3</dim>
				</port>
			</output>
		</layer>
		<layer id="288" name="bottleneck2_0/inner/dw1/conv" type="GroupConvolution" version="opset1">
			<data auto_pad="explicit" dilations="1,1" pads_begin="1,1" pads_end="1,1" strides="2,2"/>
			<input>
				<port id="0">
					<dim>1</dim>
					<dim>16</dim>
					<dim>160</dim>
					<dim>272</dim>
				</port>
				<port id="1">
					<dim>16</dim>
					<dim>1</dim>
					<dim>1</dim>
					<dim>3</dim>
					<dim>3</dim>
				</port>
			</input>
			<output>
				<port id="2" precision="FP16">
					<dim>1</dim>
					<dim>16</dim>
					<dim>80</dim>
					<dim>136</dim>
				</port>
			</output>
		</layer>
		<layer id="289" name="data_add_237682377324698/EltwiseUnsqueeze25034_const845_const" type="Const" version="opset1">
			<data element_type="f16" offset="8140" shape="1,16,1,1" size="32"/>
			<output>
				<port id="0" precision="FP16">
					<dim>1</dim>
					<dim>16</dim>
					<dim>1</dim>
					<dim>1</dim>
				</port>
			</output>
		</layer>
		<layer id="290" name="bottleneck2_0/inner/dw1/bn/variance/Fused_Add_" type="Add" version="opset1">
			<data auto_broadcast="numpy"/>
			<input>
				<port id="0">
					<dim>1</dim>
					<dim>16</dim>
					<dim>80</dim>
					<dim>136</dim>
				</port>
				<port id="1">
					<dim>1</dim>
					<dim>16</dim>
					<dim>1</dim>
					<dim>1</dim>
				</port>
			</input>
			<output>
				<port id="2" names="bottleneck2_0/inner/dw1/conv" precision="FP16">
					<dim>1</dim>
					<dim>16</dim>
					<dim>80</dim>
					<dim>136</dim>
				</port>
			</output>
		</layer>
		<layer id="291" name="bottleneck2_0/inner/dw1/fn/Cast_115561_const" type="Const" version="opset1">
			<data element_type="f32" offset="1380" shape="1" size="4"/>
			<output>
				<port id="0" precision="FP32">
					<dim>1</dim>
				</port>
			</output>
		</layer>
		<layer id="292" name="bottleneck2_0/inner/dw1/fn" type="PReLU" version="opset1">
			<input>
				<port id="0">
					<dim>1</dim>
					<dim>16</dim>
					<dim>80</dim>
					<dim>136</dim>
				</port>
				<port id="1">
					<dim>1</dim>
				</port>
			</input>
			<output>
				<port id="2" names="bottleneck2_0/inner/dw1/conv" precision="FP16">
					<dim>1</dim>
					<dim>16</dim>
					<dim>80</dim>
					<dim>136</dim>
				</port>
			</output>
		</layer>
		<layer id="293" name="45244528_const" type="Const" version="opset1">
			<data element_type="f16" offset="8172" shape="" size="2"/>
			<output>
				<port id="0" precision="FP16"/>
			</output>
		</layer>
		<layer id="294" name="45254529_const" type="Const" version="opset1">
			<data element_type="f16" offset="8174" shape="" size="2"/>
			<output>
				<port id="0" precision="FP16"/>
			</output>
		</layer>
		<layer id="295" name="45264530_const" type="Const" version="opset1">
			<data element_type="f16" offset="8172" shape="" size="2"/>
			<output>
				<port id="0" precision="FP16"/>
			</output>
		</layer>
		<layer id="296" name="45274531_const" type="Const" version="opset1">
			<data element_type="f16" offset="8174" shape="" size="2"/>
			<output>
				<port id="0" precision="FP16"/>
			</output>
		</layer>
		<layer id="297" name="bottleneck2_0/dim_inc/conv/fq_input_0" type="FakeQuantize" version="opset1">
			<data auto_broadcast="numpy" levels="256"/>
			<input>
				<port id="0">
					<dim>1</dim>
					<dim>16</dim>
					<dim>80</dim>
					<dim>136</dim>
				</port>
				<port id="1"/>
				<port id="2"/>
				<port id="3"/>
				<port id="4"/>
			</input>
			<output>
				<port id="5" precision="FP16">
					<dim>1</dim>
					<dim>16</dim>
					<dim>80</dim>
					<dim>136</dim>
				</port>
			</output>
		</layer>
		<layer id="298" name="bottleneck2_0/dim_inc/bn/mean/Fused_Mul_2621626218_const84910126/quantized13120_const" type="Const" version="opset1">
			<data element_type="i8" offset="8176" shape="64,16,1,1" size="1024"/>
			<output>
				<port id="0" precision="I8">
					<dim>64</dim>
					<dim>16</dim>
					<dim>1</dim>
					<dim>1</dim>
				</port>
			</output>
		</layer>
		<layer id="299" name="bottleneck2_0/dim_inc/bn/mean/Fused_Mul_2621626218_const84910126/quantized/to_f16" type="Convert" version="opset1">
			<data destination_type="f16"/>
			<input>
				<port id="0">
					<dim>64</dim>
					<dim>16</dim>
					<dim>1</dim>
					<dim>1</dim>
				</port>
			</input>
			<output>
				<port id="1" precision="FP16">
					<dim>64</dim>
					<dim>16</dim>
					<dim>1</dim>
					<dim>1</dim>
				</port>
			</output>
		</layer>
		<layer id="300" name="bottleneck2_0/dim_inc/conv/fq_weights_1/zero_point13133_const" type="Const" version="opset1">
			<data element_type="f16" offset="9200" shape="64,1,1,1" size="128"/>
			<output>
				<port id="0" precision="FP16">
					<dim>64</dim>
					<dim>1</dim>
					<dim>1</dim>
					<dim>1</dim>
				</port>
			</output>
		</layer>
		<layer id="301" name="bottleneck2_0/dim_inc/conv/fq_weights_1/minus_zp" type="Subtract" version="opset1">
			<data auto_broadcast="numpy"/>
			<input>
				<port id="0">
					<dim>64</dim>
					<dim>16</dim>
					<dim>1</dim>
					<dim>1</dim>
				</port>
				<port id="1">
					<dim>64</dim>
					<dim>1</dim>
					<dim>1</dim>
					<dim>1</dim>
				</port>
			</input>
			<output>
				<port id="2" precision="FP16">
					<dim>64</dim>
					<dim>16</dim>
					<dim>1</dim>
					<dim>1</dim>
				</port>
			</output>
		</layer>
		<layer id="302" name="bottleneck2_0/dim_inc/conv/fq_weights_1/scale13128_const" type="Const" version="opset1">
			<data element_type="f16" offset="9328" shape="64,1,1,1" size="128"/>
			<output>
				<port id="0" precision="FP16">
					<dim>64</dim>
					<dim>1</dim>
					<dim>1</dim>
					<dim>1</dim>
				</port>
			</output>
		</layer>
		<layer id="303" name="bottleneck2_0/dim_inc/conv/fq_weights_1/mulpiply_by_scale" type="Multiply" version="opset1">
			<data auto_broadcast="numpy"/>
			<input>
				<port id="0">
					<dim>64</dim>
					<dim>16</dim>
					<dim>1</dim>
					<dim>1</dim>
				</port>
				<port id="1">
					<dim>64</dim>
					<dim>1</dim>
					<dim>1</dim>
					<dim>1</dim>
				</port>
			</input>
			<output>
				<port id="2" precision="FP16">
					<dim>64</dim>
					<dim>16</dim>
					<dim>1</dim>
					<dim>1</dim>
				</port>
			</output>
		</layer>
		<layer id="304" name="bottleneck2_0/dim_inc/conv" type="Convolution" version="opset1">
			<data auto_pad="explicit" dilations="1,1" pads_begin="0,0" pads_end="0,0" strides="1,1"/>
			<input>
				<port id="0">
					<dim>1</dim>
					<dim>16</dim>
					<dim>80</dim>
					<dim>136</dim>
				</port>
				<port id="1">
					<dim>64</dim>
					<dim>16</dim>
					<dim>1</dim>
					<dim>1</dim>
				</port>
			</input>
			<output>
				<port id="2" precision="FP16">
					<dim>1</dim>
					<dim>64</dim>
					<dim>80</dim>
					<dim>136</dim>
				</port>
			</output>
		</layer>
		<layer id="305" name="data_add_237762378124700/EltwiseUnsqueeze25042_const851_const" type="Const" version="opset1">
			<data element_type="f16" offset="9456" shape="1,64,1,1" size="128"/>
			<output>
				<port id="0" precision="FP16">
					<dim>1</dim>
					<dim>64</dim>
					<dim>1</dim>
					<dim>1</dim>
				</port>
			</output>
		</layer>
		<layer id="306" name="bottleneck2_0/dim_inc/bn/variance/Fused_Add_" type="Add" version="opset1">
			<data auto_broadcast="numpy"/>
			<input>
				<port id="0">
					<dim>1</dim>
					<dim>64</dim>
					<dim>80</dim>
					<dim>136</dim>
				</port>
				<port id="1">
					<dim>1</dim>
					<dim>64</dim>
					<dim>1</dim>
					<dim>1</dim>
				</port>
			</input>
			<output>
				<port id="2" names="bottleneck2_0/dim_inc/conv" precision="FP16">
					<dim>1</dim>
					<dim>64</dim>
					<dim>80</dim>
					<dim>136</dim>
				</port>
			</output>
		</layer>
		<layer id="307" name="29542958_const" type="Const" version="opset1">
			<data element_type="f16" offset="9584" shape="" size="2"/>
			<output>
				<port id="0" precision="FP16"/>
			</output>
		</layer>
		<layer id="308" name="29552959_const" type="Const" version="opset1">
			<data element_type="f16" offset="9586" shape="" size="2"/>
			<output>
				<port id="0" precision="FP16"/>
			</output>
		</layer>
		<layer id="309" name="29562960_const" type="Const" version="opset1">
			<data element_type="f16" offset="9584" shape="" size="2"/>
			<output>
				<port id="0" precision="FP16"/>
			</output>
		</layer>
		<layer id="310" name="29572961_const" type="Const" version="opset1">
			<data element_type="f16" offset="9586" shape="" size="2"/>
			<output>
				<port id="0" precision="FP16"/>
			</output>
		</layer>
		<layer id="311" name="bottleneck2_0/add/fq_input_1" type="FakeQuantize" version="opset1">
			<data auto_broadcast="numpy" levels="256"/>
			<input>
				<port id="0">
					<dim>1</dim>
					<dim>64</dim>
					<dim>80</dim>
					<dim>136</dim>
				</port>
				<port id="1"/>
				<port id="2"/>
				<port id="3"/>
				<port id="4"/>
			</input>
			<output>
				<port id="5" precision="FP16">
					<dim>1</dim>
					<dim>64</dim>
					<dim>80</dim>
					<dim>136</dim>
				</port>
			</output>
		</layer>
		<layer id="312" name="bottleneck2_0/add" type="Add" version="opset1">
			<data auto_broadcast="numpy"/>
			<input>
				<port id="0">
					<dim>1</dim>
					<dim>64</dim>
					<dim>80</dim>
					<dim>136</dim>
				</port>
				<port id="1">
					<dim>1</dim>
					<dim>64</dim>
					<dim>80</dim>
					<dim>136</dim>
				</port>
			</input>
			<output>
				<port id="2" names="bottleneck2_0/add" precision="FP16">
					<dim>1</dim>
					<dim>64</dim>
					<dim>80</dim>
					<dim>136</dim>
				</port>
			</output>
		</layer>
		<layer id="313" name="bottleneck2_0/fn/Cast_115503_const" type="Const" version="opset1">
			<data element_type="f32" offset="1380" shape="1" size="4"/>
			<output>
				<port id="0" precision="FP32">
					<dim>1</dim>
				</port>
			</output>
		</layer>
		<layer id="314" name="bottleneck2_0/fn" type="PReLU" version="opset1">
			<input>
				<port id="0">
					<dim>1</dim>
					<dim>64</dim>
					<dim>80</dim>
					<dim>136</dim>
				</port>
				<port id="1">
					<dim>1</dim>
				</port>
			</input>
			<output>
				<port id="2" names="bottleneck2_0/add" precision="FP16">
					<dim>1</dim>
					<dim>64</dim>
					<dim>80</dim>
					<dim>136</dim>
				</port>
			</output>
		</layer>
		<layer id="315" name="42044208_const" type="Const" version="opset1">
			<data element_type="f16" offset="9588" shape="" size="2"/>
			<output>
				<port id="0" precision="FP16"/>
			</output>
		</layer>
		<layer id="316" name="42054209_const" type="Const" version="opset1">
			<data element_type="f16" offset="9590" shape="" size="2"/>
			<output>
				<port id="0" precision="FP16"/>
			</output>
		</layer>
		<layer id="317" name="42064210_const" type="Const" version="opset1">
			<data element_type="f16" offset="9588" shape="" size="2"/>
			<output>
				<port id="0" precision="FP16"/>
			</output>
		</layer>
		<layer id="318" name="42074211_const" type="Const" version="opset1">
			<data element_type="f16" offset="9590" shape="" size="2"/>
			<output>
				<port id="0" precision="FP16"/>
			</output>
		</layer>
		<layer id="319" name="bottleneck2_1/add/fq_input_0" type="FakeQuantize" version="opset1">
			<data auto_broadcast="numpy" levels="256"/>
			<input>
				<port id="0">
					<dim>1</dim>
					<dim>64</dim>
					<dim>80</dim>
					<dim>136</dim>
				</port>
				<port id="1"/>
				<port id="2"/>
				<port id="3"/>
				<port id="4"/>
			</input>
			<output>
				<port id="5" precision="FP16">
					<dim>1</dim>
					<dim>64</dim>
					<dim>80</dim>
					<dim>136</dim>
				</port>
			</output>
		</layer>
		<layer id="320" name="bottleneck2_1/dim_red/bn/mean/Fused_Mul_2622026222_const85610129/quantized13480_const" type="Const" version="opset1">
			<data element_type="i8" offset="9592" shape="16,64,1,1" size="1024"/>
			<output>
				<port id="0" precision="I8">
					<dim>16</dim>
					<dim>64</dim>
					<dim>1</dim>
					<dim>1</dim>
				</port>
			</output>
		</layer>
		<layer id="321" name="bottleneck2_1/dim_red/bn/mean/Fused_Mul_2622026222_const85610129/quantized/to_f16" type="Convert" version="opset1">
			<data destination_type="f16"/>
			<input>
				<port id="0">
					<dim>16</dim>
					<dim>64</dim>
					<dim>1</dim>
					<dim>1</dim>
				</port>
			</input>
			<output>
				<port id="1" precision="FP16">
					<dim>16</dim>
					<dim>64</dim>
					<dim>1</dim>
					<dim>1</dim>
				</port>
			</output>
		</layer>
		<layer id="322" name="bottleneck2_1/dim_red/conv/fq_weights_1/zero_point13493_const" type="Const" version="opset1">
			<data element_type="f16" offset="10616" shape="16,1,1,1" size="32"/>
			<output>
				<port id="0" precision="FP16">
					<dim>16</dim>
					<dim>1</dim>
					<dim>1</dim>
					<dim>1</dim>
				</port>
			</output>
		</layer>
		<layer id="323" name="bottleneck2_1/dim_red/conv/fq_weights_1/minus_zp" type="Subtract" version="opset1">
			<data auto_broadcast="numpy"/>
			<input>
				<port id="0">
					<dim>16</dim>
					<dim>64</dim>
					<dim>1</dim>
					<dim>1</dim>
				</port>
				<port id="1">
					<dim>16</dim>
					<dim>1</dim>
					<dim>1</dim>
					<dim>1</dim>
				</port>
			</input>
			<output>
				<port id="2" precision="FP16">
					<dim>16</dim>
					<dim>64</dim>
					<dim>1</dim>
					<dim>1</dim>
				</port>
			</output>
		</layer>
		<layer id="324" name="bottleneck2_1/dim_red/conv/fq_weights_1/scale13488_const" type="Const" version="opset1">
			<data element_type="f16" offset="10648" shape="16,1,1,1" size="32"/>
			<output>
				<port id="0" precision="FP16">
					<dim>16</dim>
					<dim>1</dim>
					<dim>1</dim>
					<dim>1</dim>
				</port>
			</output>
		</layer>
		<layer id="325" name="bottleneck2_1/dim_red/conv/fq_weights_1/mulpiply_by_scale" type="Multiply" version="opset1">
			<data auto_broadcast="numpy"/>
			<input>
				<port id="0">
					<dim>16</dim>
					<dim>64</dim>
					<dim>1</dim>
					<dim>1</dim>
				</port>
				<port id="1">
					<dim>16</dim>
					<dim>1</dim>
					<dim>1</dim>
					<dim>1</dim>
				</port>
			</input>
			<output>
				<port id="2" precision="FP16">
					<dim>16</dim>
					<dim>64</dim>
					<dim>1</dim>
					<dim>1</dim>
				</port>
			</output>
		</layer>
		<layer id="326" name="bottleneck2_1/dim_red/conv" type="Convolution" version="opset1">
			<data auto_pad="explicit" dilations="1,1" pads_begin="0,0" pads_end="0,0" strides="1,1"/>
			<input>
				<port id="0">
					<dim>1</dim>
					<dim>64</dim>
					<dim>80</dim>
					<dim>136</dim>
				</port>
				<port id="1">
					<dim>16</dim>
					<dim>64</dim>
					<dim>1</dim>
					<dim>1</dim>
				</port>
			</input>
			<output>
				<port id="2" precision="FP16">
					<dim>1</dim>
					<dim>16</dim>
					<dim>80</dim>
					<dim>136</dim>
				</port>
			</output>
		</layer>
		<layer id="327" name="data_add_237842378924702/EltwiseUnsqueeze25050_const858_const" type="Const" version="opset1">
			<data element_type="f16" offset="10680" shape="1,16,1,1" size="32"/>
			<output>
				<port id="0" precision="FP16">
					<dim>1</dim>
					<dim>16</dim>
					<dim>1</dim>
					<dim>1</dim>
				</port>
			</output>
		</layer>
		<layer id="328" name="bottleneck2_1/dim_red/bn/variance/Fused_Add_" type="Add" version="opset1">
			<data auto_broadcast="numpy"/>
			<input>
				<port id="0">
					<dim>1</dim>
					<dim>16</dim>
					<dim>80</dim>
					<dim>136</dim>
				</port>
				<port id="1">
					<dim>1</dim>
					<dim>16</dim>
					<dim>1</dim>
					<dim>1</dim>
				</port>
			</input>
			<output>
				<port id="2" names="bottleneck2_1/dim_red/conv" precision="FP16">
					<dim>1</dim>
					<dim>16</dim>
					<dim>80</dim>
					<dim>136</dim>
				</port>
			</output>
		</layer>
		<layer id="329" name="bottleneck2_1/dim_red/fn/Cast_115605_const" type="Const" version="opset1">
			<data element_type="f32" offset="1380" shape="1" size="4"/>
			<output>
				<port id="0" precision="FP32">
					<dim>1</dim>
				</port>
			</output>
		</layer>
		<layer id="330" name="bottleneck2_1/dim_red/fn" type="PReLU" version="opset1">
			<input>
				<port id="0">
					<dim>1</dim>
					<dim>16</dim>
					<dim>80</dim>
					<dim>136</dim>
				</port>
				<port id="1">
					<dim>1</dim>
				</port>
			</input>
			<output>
				<port id="2" names="bottleneck2_1/dim_red/conv" precision="FP16">
					<dim>1</dim>
					<dim>16</dim>
					<dim>80</dim>
					<dim>136</dim>
				</port>
			</output>
		</layer>
		<layer id="331" name="30843088_const" type="Const" version="opset1">
			<data element_type="f16" offset="10712" shape="1,16,1,1" size="32"/>
			<output>
				<port id="0" precision="FP16">
					<dim>1</dim>
					<dim>16</dim>
					<dim>1</dim>
					<dim>1</dim>
				</port>
			</output>
		</layer>
		<layer id="332" name="30853089_const" type="Const" version="opset1">
			<data element_type="f16" offset="10744" shape="1,16,1,1" size="32"/>
			<output>
				<port id="0" precision="FP16">
					<dim>1</dim>
					<dim>16</dim>
					<dim>1</dim>
					<dim>1</dim>
				</port>
			</output>
		</layer>
		<layer id="333" name="30863090_const" type="Const" version="opset1">
			<data element_type="f16" offset="10712" shape="1,16,1,1" size="32"/>
			<output>
				<port id="0" precision="FP16">
					<dim>1</dim>
					<dim>16</dim>
					<dim>1</dim>
					<dim>1</dim>
				</port>
			</output>
		</layer>
		<layer id="334" name="30873091_const" type="Const" version="opset1">
			<data element_type="f16" offset="10744" shape="1,16,1,1" size="32"/>
			<output>
				<port id="0" precision="FP16">
					<dim>1</dim>
					<dim>16</dim>
					<dim>1</dim>
					<dim>1</dim>
				</port>
			</output>
		</layer>
		<layer id="335" name="bottleneck2_1/inner/dw1/conv/fq_input_0" type="FakeQuantize" version="opset1">
			<data auto_broadcast="numpy" levels="256"/>
			<input>
				<port id="0">
					<dim>1</dim>
					<dim>16</dim>
					<dim>80</dim>
					<dim>136</dim>
				</port>
				<port id="1">
					<dim>1</dim>
					<dim>16</dim>
					<dim>1</dim>
					<dim>1</dim>
				</port>
				<port id="2">
					<dim>1</dim>
					<dim>16</dim>
					<dim>1</dim>
					<dim>1</dim>
				</port>
				<port id="3">
					<dim>1</dim>
					<dim>16</dim>
					<dim>1</dim>
					<dim>1</dim>
				</port>
				<port id="4">
					<dim>1</dim>
					<dim>16</dim>
					<dim>1</dim>
					<dim>1</dim>
				</port>
			</input>
			<output>
				<port id="5" precision="FP16">
					<dim>1</dim>
					<dim>16</dim>
					<dim>80</dim>
					<dim>136</dim>
				</port>
			</output>
		</layer>
		<layer id="336" name="3824538248_const86210132/quantized14152_const" type="Const" version="opset1">
			<data element_type="i8" offset="10776" shape="16,1,3,3" size="144"/>
			<output>
				<port id="0" precision="I8">
					<dim>16</dim>
					<dim>1</dim>
					<dim>3</dim>
					<dim>3</dim>
				</port>
			</output>
		</layer>
		<layer id="337" name="3824538248_const86210132/quantized/to_f16" type="Convert" version="opset1">
			<data destination_type="f16"/>
			<input>
				<port id="0">
					<dim>16</dim>
					<dim>1</dim>
					<dim>3</dim>
					<dim>3</dim>
				</port>
			</input>
			<output>
				<port id="1" precision="FP16">
					<dim>16</dim>
					<dim>1</dim>
					<dim>3</dim>
					<dim>3</dim>
				</port>
			</output>
		</layer>
		<layer id="338" name="bottleneck2_1/inner/dw1/conv/fq_weights_1/zero_point14165_const" type="Const" version="opset1">
			<data element_type="f16" offset="10920" shape="16,1,1,1" size="32"/>
			<output>
				<port id="0" precision="FP16">
					<dim>16</dim>
					<dim>1</dim>
					<dim>1</dim>
					<dim>1</dim>
				</port>
			</output>
		</layer>
		<layer id="339" name="bottleneck2_1/inner/dw1/conv/fq_weights_1/minus_zp" type="Subtract" version="opset1">
			<data auto_broadcast="numpy"/>
			<input>
				<port id="0">
					<dim>16</dim>
					<dim>1</dim>
					<dim>3</dim>
					<dim>3</dim>
				</port>
				<port id="1">
					<dim>16</dim>
					<dim>1</dim>
					<dim>1</dim>
					<dim>1</dim>
				</port>
			</input>
			<output>
				<port id="2" precision="FP16">
					<dim>16</dim>
					<dim>1</dim>
					<dim>3</dim>
					<dim>3</dim>
				</port>
			</output>
		</layer>
		<layer id="340" name="bottleneck2_1/inner/dw1/conv/fq_weights_1/scale14160_const" type="Const" version="opset1">
			<data element_type="f16" offset="10952" shape="16,1,1,1" size="32"/>
			<output>
				<port id="0" precision="FP16">
					<dim>16</dim>
					<dim>1</dim>
					<dim>1</dim>
					<dim>1</dim>
				</port>
			</output>
		</layer>
		<layer id="341" name="bottleneck2_1/inner/dw1/conv/fq_weights_1/mulpiply_by_scale" type="Multiply" version="opset1">
			<data auto_broadcast="numpy"/>
			<input>
				<port id="0">
					<dim>16</dim>
					<dim>1</dim>
					<dim>3</dim>
					<dim>3</dim>
				</port>
				<port id="1">
					<dim>16</dim>
					<dim>1</dim>
					<dim>1</dim>
					<dim>1</dim>
				</port>
			</input>
			<output>
				<port id="2" precision="FP16">
					<dim>16</dim>
					<dim>1</dim>
					<dim>3</dim>
					<dim>3</dim>
				</port>
			</output>
		</layer>
		<layer id="342" name="16823/value16825_const" type="Const" version="opset1">
			<data element_type="i64" offset="8100" shape="5" size="40"/>
			<output>
				<port id="0" precision="I64">
					<dim>5</dim>
				</port>
			</output>
		</layer>
		<layer id="343" name="16823" type="Reshape" version="opset1">
			<data special_zero="true"/>
			<input>
				<port id="0">
					<dim>16</dim>
					<dim>1</dim>
					<dim>3</dim>
					<dim>3</dim>
				</port>
				<port id="1">
					<dim>5</dim>
				</port>
			</input>
			<output>
				<port id="2" precision="FP16">
					<dim>16</dim>
					<dim>1</dim>
					<dim>1</dim>
					<dim>3</dim>
					<dim>3</dim>
				</port>
			</output>
		</layer>
		<layer id="344" name="bottleneck2_1/inner/dw1/conv" type="GroupConvolution" version="opset1">
			<data auto_pad="explicit" dilations="1,1" pads_begin="1,1" pads_end="1,1" strides="1,1"/>
			<input>
				<port id="0">
					<dim>1</dim>
					<dim>16</dim>
					<dim>80</dim>
					<dim>136</dim>
				</port>
				<port id="1">
					<dim>16</dim>
					<dim>1</dim>
					<dim>1</dim>
					<dim>3</dim>
					<dim>3</dim>
				</port>
			</input>
			<output>
				<port id="2" precision="FP16">
					<dim>1</dim>
					<dim>16</dim>
					<dim>80</dim>
					<dim>136</dim>
				</port>
			</output>
		</layer>
		<layer id="345" name="data_add_237922379724704/EltwiseUnsqueeze25058_const864_const" type="Const" version="opset1">
			<data element_type="f16" offset="10984" shape="1,16,1,1" size="32"/>
			<output>
				<port id="0" precision="FP16">
					<dim>1</dim>
					<dim>16</dim>
					<dim>1</dim>
					<dim>1</dim>
				</port>
			</output>
		</layer>
		<layer id="346" name="bottleneck2_1/inner/dw1/bn/variance/Fused_Add_" type="Add" version="opset1">
			<data auto_broadcast="numpy"/>
			<input>
				<port id="0">
					<dim>1</dim>
					<dim>16</dim>
					<dim>80</dim>
					<dim>136</dim>
				</port>
				<port id="1">
					<dim>1</dim>
					<dim>16</dim>
					<dim>1</dim>
					<dim>1</dim>
				</port>
			</input>
			<output>
				<port id="2" names="bottleneck2_1/inner/dw1/conv" precision="FP16">
					<dim>1</dim>
					<dim>16</dim>
					<dim>80</dim>
					<dim>136</dim>
				</port>
			</output>
		</layer>
		<layer id="347" name="bottleneck2_1/inner/dw1/fn/Cast_115571_const" type="Const" version="opset1">
			<data element_type="f32" offset="1380" shape="1" size="4"/>
			<output>
				<port id="0" precision="FP32">
					<dim>1</dim>
				</port>
			</output>
		</layer>
		<layer id="348" name="bottleneck2_1/inner/dw1/fn" type="PReLU" version="opset1">
			<input>
				<port id="0">
					<dim>1</dim>
					<dim>16</dim>
					<dim>80</dim>
					<dim>136</dim>
				</port>
				<port id="1">
					<dim>1</dim>
				</port>
			</input>
			<output>
				<port id="2" names="bottleneck2_1/inner/dw1/conv" precision="FP16">
					<dim>1</dim>
					<dim>16</dim>
					<dim>80</dim>
					<dim>136</dim>
				</port>
			</output>
		</layer>
		<layer id="349" name="49444948_const" type="Const" version="opset1">
			<data element_type="f16" offset="11016" shape="" size="2"/>
			<output>
				<port id="0" precision="FP16"/>
			</output>
		</layer>
		<layer id="350" name="49454949_const" type="Const" version="opset1">
			<data element_type="f16" offset="11018" shape="" size="2"/>
			<output>
				<port id="0" precision="FP16"/>
			</output>
		</layer>
		<layer id="351" name="49464950_const" type="Const" version="opset1">
			<data element_type="f16" offset="11016" shape="" size="2"/>
			<output>
				<port id="0" precision="FP16"/>
			</output>
		</layer>
		<layer id="352" name="49474951_const" type="Const" version="opset1">
			<data element_type="f16" offset="11018" shape="" size="2"/>
			<output>
				<port id="0" precision="FP16"/>
			</output>
		</layer>
		<layer id="353" name="bottleneck2_1/dim_inc/conv/fq_input_0" type="FakeQuantize" version="opset1">
			<data auto_broadcast="numpy" levels="256"/>
			<input>
				<port id="0">
					<dim>1</dim>
					<dim>16</dim>
					<dim>80</dim>
					<dim>136</dim>
				</port>
				<port id="1"/>
				<port id="2"/>
				<port id="3"/>
				<port id="4"/>
			</input>
			<output>
				<port id="5" precision="FP16">
					<dim>1</dim>
					<dim>16</dim>
					<dim>80</dim>
					<dim>136</dim>
				</port>
			</output>
		</layer>
		<layer id="354" name="bottleneck2_1/dim_inc/bn/mean/Fused_Mul_2622826230_const86810135/quantized12568_const" type="Const" version="opset1">
			<data element_type="i8" offset="11020" shape="64,16,1,1" size="1024"/>
			<output>
				<port id="0" precision="I8">
					<dim>64</dim>
					<dim>16</dim>
					<dim>1</dim>
					<dim>1</dim>
				</port>
			</output>
		</layer>
		<layer id="355" name="bottleneck2_1/dim_inc/bn/mean/Fused_Mul_2622826230_const86810135/quantized/to_f16" type="Convert" version="opset1">
			<data destination_type="f16"/>
			<input>
				<port id="0">
					<dim>64</dim>
					<dim>16</dim>
					<dim>1</dim>
					<dim>1</dim>
				</port>
			</input>
			<output>
				<port id="1" precision="FP16">
					<dim>64</dim>
					<dim>16</dim>
					<dim>1</dim>
					<dim>1</dim>
				</port>
			</output>
		</layer>
		<layer id="356" name="bottleneck2_1/dim_inc/conv/fq_weights_1/zero_point12581_const" type="Const" version="opset1">
			<data element_type="f16" offset="12044" shape="64,1,1,1" size="128"/>
			<output>
				<port id="0" precision="FP16">
					<dim>64</dim>
					<dim>1</dim>
					<dim>1</dim>
					<dim>1</dim>
				</port>
			</output>
		</layer>
		<layer id="357" name="bottleneck2_1/dim_inc/conv/fq_weights_1/minus_zp" type="Subtract" version="opset1">
			<data auto_broadcast="numpy"/>
			<input>
				<port id="0">
					<dim>64</dim>
					<dim>16</dim>
					<dim>1</dim>
					<dim>1</dim>
				</port>
				<port id="1">
					<dim>64</dim>
					<dim>1</dim>
					<dim>1</dim>
					<dim>1</dim>
				</port>
			</input>
			<output>
				<port id="2" precision="FP16">
					<dim>64</dim>
					<dim>16</dim>
					<dim>1</dim>
					<dim>1</dim>
				</port>
			</output>
		</layer>
		<layer id="358" name="bottleneck2_1/dim_inc/conv/fq_weights_1/scale12576_const" type="Const" version="opset1">
			<data element_type="f16" offset="12172" shape="64,1,1,1" size="128"/>
			<output>
				<port id="0" precision="FP16">
					<dim>64</dim>
					<dim>1</dim>
					<dim>1</dim>
					<dim>1</dim>
				</port>
			</output>
		</layer>
		<layer id="359" name="bottleneck2_1/dim_inc/conv/fq_weights_1/mulpiply_by_scale" type="Multiply" version="opset1">
			<data auto_broadcast="numpy"/>
			<input>
				<port id="0">
					<dim>64</dim>
					<dim>16</dim>
					<dim>1</dim>
					<dim>1</dim>
				</port>
				<port id="1">
					<dim>64</dim>
					<dim>1</dim>
					<dim>1</dim>
					<dim>1</dim>
				</port>
			</input>
			<output>
				<port id="2" precision="FP16">
					<dim>64</dim>
					<dim>16</dim>
					<dim>1</dim>
					<dim>1</dim>
				</port>
			</output>
		</layer>
		<layer id="360" name="bottleneck2_1/dim_inc/conv" type="Convolution" version="opset1">
			<data auto_pad="explicit" dilations="1,1" pads_begin="0,0" pads_end="0,0" strides="1,1"/>
			<input>
				<port id="0">
					<dim>1</dim>
					<dim>16</dim>
					<dim>80</dim>
					<dim>136</dim>
				</port>
				<port id="1">
					<dim>64</dim>
					<dim>16</dim>
					<dim>1</dim>
					<dim>1</dim>
				</port>
			</input>
			<output>
				<port id="2" precision="FP16">
					<dim>1</dim>
					<dim>64</dim>
					<dim>80</dim>
					<dim>136</dim>
				</port>
			</output>
		</layer>
		<layer id="361" name="data_add_238002380524706/EltwiseUnsqueeze25066_const870_const" type="Const" version="opset1">
			<data element_type="f16" offset="12300" shape="1,64,1,1" size="128"/>
			<output>
				<port id="0" precision="FP16">
					<dim>1</dim>
					<dim>64</dim>
					<dim>1</dim>
					<dim>1</dim>
				</port>
			</output>
		</layer>
		<layer id="362" name="bottleneck2_1/dim_inc/bn/variance/Fused_Add_" type="Add" version="opset1">
			<data auto_broadcast="numpy"/>
			<input>
				<port id="0">
					<dim>1</dim>
					<dim>64</dim>
					<dim>80</dim>
					<dim>136</dim>
				</port>
				<port id="1">
					<dim>1</dim>
					<dim>64</dim>
					<dim>1</dim>
					<dim>1</dim>
				</port>
			</input>
			<output>
				<port id="2" names="bottleneck2_1/dim_inc/conv" precision="FP16">
					<dim>1</dim>
					<dim>64</dim>
					<dim>80</dim>
					<dim>136</dim>
				</port>
			</output>
		</layer>
		<layer id="363" name="42144218_const" type="Const" version="opset1">
			<data element_type="f16" offset="12428" shape="" size="2"/>
			<output>
				<port id="0" precision="FP16"/>
			</output>
		</layer>
		<layer id="364" name="42154219_const" type="Const" version="opset1">
			<data element_type="f16" offset="12430" shape="" size="2"/>
			<output>
				<port id="0" precision="FP16"/>
			</output>
		</layer>
		<layer id="365" name="42164220_const" type="Const" version="opset1">
			<data element_type="f16" offset="12428" shape="" size="2"/>
			<output>
				<port id="0" precision="FP16"/>
			</output>
		</layer>
		<layer id="366" name="42174221_const" type="Const" version="opset1">
			<data element_type="f16" offset="12430" shape="" size="2"/>
			<output>
				<port id="0" precision="FP16"/>
			</output>
		</layer>
		<layer id="367" name="bottleneck2_1/add/fq_input_1" type="FakeQuantize" version="opset1">
			<data auto_broadcast="numpy" levels="256"/>
			<input>
				<port id="0">
					<dim>1</dim>
					<dim>64</dim>
					<dim>80</dim>
					<dim>136</dim>
				</port>
				<port id="1"/>
				<port id="2"/>
				<port id="3"/>
				<port id="4"/>
			</input>
			<output>
				<port id="5" precision="FP16">
					<dim>1</dim>
					<dim>64</dim>
					<dim>80</dim>
					<dim>136</dim>
				</port>
			</output>
		</layer>
		<layer id="368" name="bottleneck2_1/add" type="Add" version="opset1">
			<data auto_broadcast="numpy"/>
			<input>
				<port id="0">
					<dim>1</dim>
					<dim>64</dim>
					<dim>80</dim>
					<dim>136</dim>
				</port>
				<port id="1">
					<dim>1</dim>
					<dim>64</dim>
					<dim>80</dim>
					<dim>136</dim>
				</port>
			</input>
			<output>
				<port id="2" names="bottleneck2_1/add" precision="FP16">
					<dim>1</dim>
					<dim>64</dim>
					<dim>80</dim>
					<dim>136</dim>
				</port>
			</output>
		</layer>
		<layer id="369" name="bottleneck2_1/fn/Cast_115485_const" type="Const" version="opset1">
			<data element_type="f32" offset="1380" shape="1" size="4"/>
			<output>
				<port id="0" precision="FP32">
					<dim>1</dim>
				</port>
			</output>
		</layer>
		<layer id="370" name="bottleneck2_1/fn" type="PReLU" version="opset1">
			<input>
				<port id="0">
					<dim>1</dim>
					<dim>64</dim>
					<dim>80</dim>
					<dim>136</dim>
				</port>
				<port id="1">
					<dim>1</dim>
				</port>
			</input>
			<output>
				<port id="2" names="bottleneck2_1/add" precision="FP16">
					<dim>1</dim>
					<dim>64</dim>
					<dim>80</dim>
					<dim>136</dim>
				</port>
			</output>
		</layer>
		<layer id="371" name="44044408_const" type="Const" version="opset1">
			<data element_type="f16" offset="12432" shape="" size="2"/>
			<output>
				<port id="0" precision="FP16"/>
			</output>
		</layer>
		<layer id="372" name="44054409_const" type="Const" version="opset1">
			<data element_type="f16" offset="12434" shape="" size="2"/>
			<output>
				<port id="0" precision="FP16"/>
			</output>
		</layer>
		<layer id="373" name="44064410_const" type="Const" version="opset1">
			<data element_type="f16" offset="12432" shape="" size="2"/>
			<output>
				<port id="0" precision="FP16"/>
			</output>
		</layer>
		<layer id="374" name="44074411_const" type="Const" version="opset1">
			<data element_type="f16" offset="12434" shape="" size="2"/>
			<output>
				<port id="0" precision="FP16"/>
			</output>
		</layer>
		<layer id="375" name="bottleneck2_2/add/fq_input_0" type="FakeQuantize" version="opset1">
			<data auto_broadcast="numpy" levels="256"/>
			<input>
				<port id="0">
					<dim>1</dim>
					<dim>64</dim>
					<dim>80</dim>
					<dim>136</dim>
				</port>
				<port id="1"/>
				<port id="2"/>
				<port id="3"/>
				<port id="4"/>
			</input>
			<output>
				<port id="5" precision="FP16">
					<dim>1</dim>
					<dim>64</dim>
					<dim>80</dim>
					<dim>136</dim>
				</port>
			</output>
		</layer>
		<layer id="376" name="bottleneck2_2/dim_red/bn/mean/Fused_Mul_2623226234_const87510138/quantized12832_const" type="Const" version="opset1">
			<data element_type="i8" offset="12436" shape="16,64,1,1" size="1024"/>
			<output>
				<port id="0" precision="I8">
					<dim>16</dim>
					<dim>64</dim>
					<dim>1</dim>
					<dim>1</dim>
				</port>
			</output>
		</layer>
		<layer id="377" name="bottleneck2_2/dim_red/bn/mean/Fused_Mul_2623226234_const87510138/quantized/to_f16" type="Convert" version="opset1">
			<data destination_type="f16"/>
			<input>
				<port id="0">
					<dim>16</dim>
					<dim>64</dim>
					<dim>1</dim>
					<dim>1</dim>
				</port>
			</input>
			<output>
				<port id="1" precision="FP16">
					<dim>16</dim>
					<dim>64</dim>
					<dim>1</dim>
					<dim>1</dim>
				</port>
			</output>
		</layer>
		<layer id="378" name="bottleneck2_2/dim_red/conv/fq_weights_1/zero_point12845_const" type="Const" version="opset1">
			<data element_type="f16" offset="13460" shape="16,1,1,1" size="32"/>
			<output>
				<port id="0" precision="FP16">
					<dim>16</dim>
					<dim>1</dim>
					<dim>1</dim>
					<dim>1</dim>
				</port>
			</output>
		</layer>
		<layer id="379" name="bottleneck2_2/dim_red/conv/fq_weights_1/minus_zp" type="Subtract" version="opset1">
			<data auto_broadcast="numpy"/>
			<input>
				<port id="0">
					<dim>16</dim>
					<dim>64</dim>
					<dim>1</dim>
					<dim>1</dim>
				</port>
				<port id="1">
					<dim>16</dim>
					<dim>1</dim>
					<dim>1</dim>
					<dim>1</dim>
				</port>
			</input>
			<output>
				<port id="2" precision="FP16">
					<dim>16</dim>
					<dim>64</dim>
					<dim>1</dim>
					<dim>1</dim>
				</port>
			</output>
		</layer>
		<layer id="380" name="bottleneck2_2/dim_red/conv/fq_weights_1/scale12840_const" type="Const" version="opset1">
			<data element_type="f16" offset="13492" shape="16,1,1,1" size="32"/>
			<output>
				<port id="0" precision="FP16">
					<dim>16</dim>
					<dim>1</dim>
					<dim>1</dim>
					<dim>1</dim>
				</port>
			</output>
		</layer>
		<layer id="381" name="bottleneck2_2/dim_red/conv/fq_weights_1/mulpiply_by_scale" type="Multiply" version="opset1">
			<data auto_broadcast="numpy"/>
			<input>
				<port id="0">
					<dim>16</dim>
					<dim>64</dim>
					<dim>1</dim>
					<dim>1</dim>
				</port>
				<port id="1">
					<dim>16</dim>
					<dim>1</dim>
					<dim>1</dim>
					<dim>1</dim>
				</port>
			</input>
			<output>
				<port id="2" precision="FP16">
					<dim>16</dim>
					<dim>64</dim>
					<dim>1</dim>
					<dim>1</dim>
				</port>
			</output>
		</layer>
		<layer id="382" name="bottleneck2_2/dim_red/conv" type="Convolution" version="opset1">
			<data auto_pad="explicit" dilations="1,1" pads_begin="0,0" pads_end="0,0" strides="1,1"/>
			<input>
				<port id="0">
					<dim>1</dim>
					<dim>64</dim>
					<dim>80</dim>
					<dim>136</dim>
				</port>
				<port id="1">
					<dim>16</dim>
					<dim>64</dim>
					<dim>1</dim>
					<dim>1</dim>
				</port>
			</input>
			<output>
				<port id="2" precision="FP16">
					<dim>1</dim>
					<dim>16</dim>
					<dim>80</dim>
					<dim>136</dim>
				</port>
			</output>
		</layer>
		<layer id="383" name="data_add_238082381324708/EltwiseUnsqueeze25074_const877_const" type="Const" version="opset1">
			<data element_type="f16" offset="13524" shape="1,16,1,1" size="32"/>
			<output>
				<port id="0" precision="FP16">
					<dim>1</dim>
					<dim>16</dim>
					<dim>1</dim>
					<dim>1</dim>
				</port>
			</output>
		</layer>
		<layer id="384" name="bottleneck2_2/dim_red/bn/variance/Fused_Add_" type="Add" version="opset1">
			<data auto_broadcast="numpy"/>
			<input>
				<port id="0">
					<dim>1</dim>
					<dim>16</dim>
					<dim>80</dim>
					<dim>136</dim>
				</port>
				<port id="1">
					<dim>1</dim>
					<dim>16</dim>
					<dim>1</dim>
					<dim>1</dim>
				</port>
			</input>
			<output>
				<port id="2" names="bottleneck2_2/dim_red/conv" precision="FP16">
					<dim>1</dim>
					<dim>16</dim>
					<dim>80</dim>
					<dim>136</dim>
				</port>
			</output>
		</layer>
		<layer id="385" name="bottleneck2_2/dim_red/fn/Cast_115617_const" type="Const" version="opset1">
			<data element_type="f32" offset="1380" shape="1" size="4"/>
			<output>
				<port id="0" precision="FP32">
					<dim>1</dim>
				</port>
			</output>
		</layer>
		<layer id="386" name="bottleneck2_2/dim_red/fn" type="PReLU" version="opset1">
			<input>
				<port id="0">
					<dim>1</dim>
					<dim>16</dim>
					<dim>80</dim>
					<dim>136</dim>
				</port>
				<port id="1">
					<dim>1</dim>
				</port>
			</input>
			<output>
				<port id="2" names="bottleneck2_2/dim_red/conv" precision="FP16">
					<dim>1</dim>
					<dim>16</dim>
					<dim>80</dim>
					<dim>136</dim>
				</port>
			</output>
		</layer>
		<layer id="387" name="38443848_const" type="Const" version="opset1">
			<data element_type="f16" offset="13556" shape="1,16,1,1" size="32"/>
			<output>
				<port id="0" precision="FP16">
					<dim>1</dim>
					<dim>16</dim>
					<dim>1</dim>
					<dim>1</dim>
				</port>
			</output>
		</layer>
		<layer id="388" name="38453849_const" type="Const" version="opset1">
			<data element_type="f16" offset="13588" shape="1,16,1,1" size="32"/>
			<output>
				<port id="0" precision="FP16">
					<dim>1</dim>
					<dim>16</dim>
					<dim>1</dim>
					<dim>1</dim>
				</port>
			</output>
		</layer>
		<layer id="389" name="38463850_const" type="Const" version="opset1">
			<data element_type="f16" offset="13556" shape="1,16,1,1" size="32"/>
			<output>
				<port id="0" precision="FP16">
					<dim>1</dim>
					<dim>16</dim>
					<dim>1</dim>
					<dim>1</dim>
				</port>
			</output>
		</layer>
		<layer id="390" name="38473851_const" type="Const" version="opset1">
			<data element_type="f16" offset="13588" shape="1,16,1,1" size="32"/>
			<output>
				<port id="0" precision="FP16">
					<dim>1</dim>
					<dim>16</dim>
					<dim>1</dim>
					<dim>1</dim>
				</port>
			</output>
		</layer>
		<layer id="391" name="bottleneck2_2/inner/dw1/conv/fq_input_0" type="FakeQuantize" version="opset1">
			<data auto_broadcast="numpy" levels="256"/>
			<input>
				<port id="0">
					<dim>1</dim>
					<dim>16</dim>
					<dim>80</dim>
					<dim>136</dim>
				</port>
				<port id="1">
					<dim>1</dim>
					<dim>16</dim>
					<dim>1</dim>
…
		<edge from-layer="1485" from-port="5" to-layer="1494" to-port="0"/>
		<edge from-layer="1493" from-port="2" to-layer="1494" to-port="1"/>
		<edge from-layer="1494" from-port="2" to-layer="1496" to-port="0"/>
		<edge from-layer="1495" from-port="0" to-layer="1496" to-port="1"/>
		<edge from-layer="1496" from-port="2" to-layer="1498" to-port="0"/>
		<edge from-layer="1497" from-port="0" to-layer="1498" to-port="1"/>
		<edge from-layer="1498" from-port="2" to-layer="1503" to-port="0"/>
		<edge from-layer="1499" from-port="0" to-layer="1503" to-port="1"/>
		<edge from-layer="1500" from-port="0" to-layer="1503" to-port="2"/>
		<edge from-layer="1501" from-port="0" to-layer="1503" to-port="3"/>
		<edge from-layer="1502" from-port="0" to-layer="1503" to-port="4"/>
		<edge from-layer="1504" from-port="0" to-layer="1505" to-port="0"/>
		<edge from-layer="1505" from-port="1" to-layer="1507" to-port="0"/>
		<edge from-layer="1506" from-port="0" to-layer="1507" to-port="1"/>
		<edge from-layer="1507" from-port="2" to-layer="1509" to-port="0"/>
		<edge from-layer="1508" from-port="0" to-layer="1509" to-port="1"/>
		<edge from-layer="1503" from-port="5" to-layer="1510" to-port="0"/>
		<edge from-layer="1509" from-port="2" to-layer="1510" to-port="1"/>
		<edge from-layer="1510" from-port="2" to-layer="1512" to-port="0"/>
		<edge from-layer="1511" from-port="0" to-layer="1512" to-port="1"/>
		<edge from-layer="1512" from-port="2" to-layer="1517" to-port="0"/>
		<edge from-layer="1513" from-port="0" to-layer="1517" to-port="1"/>
		<edge from-layer="1514" from-port="0" to-layer="1517" to-port="2"/>
		<edge from-layer="1515" from-port="0" to-layer="1517" to-port="3"/>
		<edge from-layer="1516" from-port="0" to-layer="1517" to-port="4"/>
		<edge from-layer="1469" from-port="5" to-layer="1518" to-port="0"/>
		<edge from-layer="1517" from-port="5" to-layer="1518" to-port="1"/>
		<edge from-layer="1518" from-port="2" to-layer="1520" to-port="0"/>
		<edge from-layer="1519" from-port="0" to-layer="1520" to-port="1"/>
		<edge from-layer="1520" from-port="2" to-layer="1525" to-port="0"/>
		<edge from-layer="1521" from-port="0" to-layer="1525" to-port="1"/>
		<edge from-layer="1522" from-port="0" to-layer="1525" to-port="2"/>
		<edge from-layer="1523" from-port="0" to-layer="1525" to-port="3"/>
		<edge from-layer="1524" from-port="0" to-layer="1525" to-port="4"/>
		<edge from-layer="1526" from-port="0" to-layer="1527" to-port="0"/>
		<edge from-layer="1527" from-port="1" to-layer="1529" to-port="0"/>
		<edge from-layer="1528" from-port="0" to-layer="1529" to-port="1"/>
		<edge from-layer="1529" from-port="2" to-layer="1531" to-port="0"/>
		<edge from-layer="1530" from-port="0" to-layer="1531" to-port="1"/>
		<edge from-layer="1525" from-port="5" to-layer="1532" to-port="0"/>
		<edge from-layer="1531" from-port="2" to-layer="1532" to-port="1"/>
		<edge from-layer="1532" from-port="2" to-layer="1534" to-port="0"/>
		<edge from-layer="1533" from-port="0" to-layer="1534" to-port="1"/>
		<edge from-layer="1534" from-port="2" to-layer="1536" to-port="0"/>
		<edge from-layer="1535" from-port="0" to-layer="1536" to-port="1"/>
		<edge from-layer="1536" from-port="2" to-layer="1541" to-port="0"/>
		<edge from-layer="1537" from-port="0" to-layer="1541" to-port="1"/>
		<edge from-layer="1538" from-port="0" to-layer="1541" to-port="2"/>
		<edge from-layer="1539" from-port="0" to-layer="1541" to-port="3"/>
		<edge from-layer="1540" from-port="0" to-layer="1541" to-port="4"/>
		<edge from-layer="1542" from-port="0" to-layer="1543" to-port="0"/>
		<edge from-layer="1543" from-port="1" to-layer="1545" to-port="0"/>
		<edge from-layer="1544" from-port="0" to-layer="1545" to-port="1"/>
		<edge from-layer="1545" from-port="2" to-layer="1547" to-port="0"/>
		<edge from-layer="1546" from-port="0" to-layer="1547" to-port="1"/>
		<edge from-layer="1547" from-port="2" to-layer="1549" to-port="0"/>
		<edge from-layer="1548" from-port="0" to-layer="1549" to-port="1"/>
		<edge from-layer="1541" from-port="5" to-layer="1550" to-port="0"/>
		<edge from-layer="1549" from-port="2" to-layer="1550" to-port="1"/>
		<edge from-layer="1550" from-port="2" to-layer="1552" to-port="0"/>
		<edge from-layer="1551" from-port="0" to-layer="1552" to-port="1"/>
		<edge from-layer="1552" from-port="2" to-layer="1554" to-port="0"/>
		<edge from-layer="1553" from-port="0" to-layer="1554" to-port="1"/>
		<edge from-layer="1554" from-port="2" to-layer="1559" to-port="0"/>
		<edge from-layer="1555" from-port="0" to-layer="1559" to-port="1"/>
		<edge from-layer="1556" from-port="0" to-layer="1559" to-port="2"/>
		<edge from-layer="1557" from-port="0" to-layer="1559" to-port="3"/>
		<edge from-layer="1558" from-port="0" to-layer="1559" to-port="4"/>
		<edge from-layer="1560" from-port="0" to-layer="1561" to-port="0"/>
		<edge from-layer="1561" from-port="1" to-layer="1563" to-port="0"/>
		<edge from-layer="1562" from-port="0" to-layer="1563" to-port="1"/>
		<edge from-layer="1563" from-port="2" to-layer="1565" to-port="0"/>
		<edge from-layer="1564" from-port="0" to-layer="1565" to-port="1"/>
		<edge from-layer="1559" from-port="5" to-layer="1566" to-port="0"/>
		<edge from-layer="1565" from-port="2" to-layer="1566" to-port="1"/>
		<edge from-layer="1566" from-port="2" to-layer="1568" to-port="0"/>
		<edge from-layer="1567" from-port="0" to-layer="1568" to-port="1"/>
		<edge from-layer="1568" from-port="2" to-layer="1573" to-port="0"/>
		<edge from-layer="1569" from-port="0" to-layer="1573" to-port="1"/>
		<edge from-layer="1570" from-port="0" to-layer="1573" to-port="2"/>
		<edge from-layer="1571" from-port="0" to-layer="1573" to-port="3"/>
		<edge from-layer="1572" from-port="0" to-layer="1573" to-port="4"/>
		<edge from-layer="1525" from-port="5" to-layer="1574" to-port="0"/>
		<edge from-layer="1573" from-port="5" to-layer="1574" to-port="1"/>
		<edge from-layer="1574" from-port="2" to-layer="1576" to-port="0"/>
		<edge from-layer="1575" from-port="0" to-layer="1576" to-port="1"/>
		<edge from-layer="1576" from-port="2" to-layer="1581" to-port="0"/>
		<edge from-layer="1577" from-port="0" to-layer="1581" to-port="1"/>
		<edge from-layer="1578" from-port="0" to-layer="1581" to-port="2"/>
		<edge from-layer="1579" from-port="0" to-layer="1581" to-port="3"/>
		<edge from-layer="1580" from-port="0" to-layer="1581" to-port="4"/>
		<edge from-layer="1582" from-port="0" to-layer="1583" to-port="0"/>
		<edge from-layer="1583" from-port="1" to-layer="1585" to-port="0"/>
		<edge from-layer="1584" from-port="0" to-layer="1585" to-port="1"/>
		<edge from-layer="1585" from-port="2" to-layer="1587" to-port="0"/>
		<edge from-layer="1586" from-port="0" to-layer="1587" to-port="1"/>
		<edge from-layer="1581" from-port="5" to-layer="1588" to-port="0"/>
		<edge from-layer="1587" from-port="2" to-layer="1588" to-port="1"/>
		<edge from-layer="1588" from-port="2" to-layer="1590" to-port="0"/>
		<edge from-layer="1589" from-port="0" to-layer="1590" to-port="1"/>
		<edge from-layer="1590" from-port="2" to-layer="1592" to-port="0"/>
		<edge from-layer="1591" from-port="0" to-layer="1592" to-port="1"/>
		<edge from-layer="1592" from-port="2" to-layer="1597" to-port="0"/>
		<edge from-layer="1593" from-port="0" to-layer="1597" to-port="1"/>
		<edge from-layer="1594" from-port="0" to-layer="1597" to-port="2"/>
		<edge from-layer="1595" from-port="0" to-layer="1597" to-port="3"/>
		<edge from-layer="1596" from-port="0" to-layer="1597" to-port="4"/>
		<edge from-layer="1598" from-port="0" to-layer="1599" to-port="0"/>
		<edge from-layer="1599" from-port="1" to-layer="1601" to-port="0"/>
		<edge from-layer="1600" from-port="0" to-layer="1601" to-port="1"/>
		<edge from-layer="1601" from-port="2" to-layer="1603" to-port="0"/>
		<edge from-layer="1602" from-port="0" to-layer="1603" to-port="1"/>
		<edge from-layer="1603" from-port="2" to-layer="1605" to-port="0"/>
		<edge from-layer="1604" from-port="0" to-layer="1605" to-port="1"/>
		<edge from-layer="1597" from-port="5" to-layer="1606" to-port="0"/>
		<edge from-layer="1605" from-port="2" to-layer="1606" to-port="1"/>
		<edge from-layer="1606" from-port="2" to-layer="1608" to-port="0"/>
		<edge from-layer="1607" from-port="0" to-layer="1608" to-port="1"/>
		<edge from-layer="1608" from-port="2" to-layer="1610" to-port="0"/>
		<edge from-layer="1609" from-port="0" to-layer="1610" to-port="1"/>
		<edge from-layer="1610" from-port="2" to-layer="1615" to-port="0"/>
		<edge from-layer="1611" from-port="0" to-layer="1615" to-port="1"/>
		<edge from-layer="1612" from-port="0" to-layer="1615" to-port="2"/>
		<edge from-layer="1613" from-port="0" to-layer="1615" to-port="3"/>
		<edge from-layer="1614" from-port="0" to-layer="1615" to-port="4"/>
		<edge from-layer="1616" from-port="0" to-layer="1617" to-port="0"/>
		<edge from-layer="1617" from-port="1" to-layer="1619" to-port="0"/>
		<edge from-layer="1618" from-port="0" to-layer="1619" to-port="1"/>
		<edge from-layer="1619" from-port="2" to-layer="1621" to-port="0"/>
		<edge from-layer="1620" from-port="0" to-layer="1621" to-port="1"/>
		<edge from-layer="1615" from-port="5" to-layer="1622" to-port="0"/>
		<edge from-layer="1621" from-port="2" to-layer="1622" to-port="1"/>
		<edge from-layer="1622" from-port="2" to-layer="1624" to-port="0"/>
		<edge from-layer="1623" from-port="0" to-layer="1624" to-port="1"/>
		<edge from-layer="1624" from-port="2" to-layer="1629" to-port="0"/>
		<edge from-layer="1625" from-port="0" to-layer="1629" to-port="1"/>
		<edge from-layer="1626" from-port="0" to-layer="1629" to-port="2"/>
		<edge from-layer="1627" from-port="0" to-layer="1629" to-port="3"/>
		<edge from-layer="1628" from-port="0" to-layer="1629" to-port="4"/>
		<edge from-layer="1581" from-port="5" to-layer="1630" to-port="0"/>
		<edge from-layer="1629" from-port="5" to-layer="1630" to-port="1"/>
		<edge from-layer="1630" from-port="2" to-layer="1632" to-port="0"/>
		<edge from-layer="1631" from-port="0" to-layer="1632" to-port="1"/>
		<edge from-layer="1632" from-port="2" to-layer="1637" to-port="0"/>
		<edge from-layer="1633" from-port="0" to-layer="1637" to-port="1"/>
		<edge from-layer="1634" from-port="0" to-layer="1637" to-port="2"/>
		<edge from-layer="1635" from-port="0" to-layer="1637" to-port="3"/>
		<edge from-layer="1636" from-port="0" to-layer="1637" to-port="4"/>
		<edge from-layer="1638" from-port="0" to-layer="1639" to-port="0"/>
		<edge from-layer="1639" from-port="1" to-layer="1641" to-port="0"/>
		<edge from-layer="1640" from-port="0" to-layer="1641" to-port="1"/>
		<edge from-layer="1641" from-port="2" to-layer="1643" to-port="0"/>
		<edge from-layer="1642" from-port="0" to-layer="1643" to-port="1"/>
		<edge from-layer="1637" from-port="5" to-layer="1644" to-port="0"/>
		<edge from-layer="1643" from-port="2" to-layer="1644" to-port="1"/>
		<edge from-layer="1644" from-port="2" to-layer="1646" to-port="0"/>
		<edge from-layer="1645" from-port="0" to-layer="1646" to-port="1"/>
		<edge from-layer="1646" from-port="2" to-layer="1648" to-port="0"/>
		<edge from-layer="1647" from-port="0" to-layer="1648" to-port="1"/>
		<edge from-layer="1648" from-port="2" to-layer="1653" to-port="0"/>
		<edge from-layer="1649" from-port="0" to-layer="1653" to-port="1"/>
		<edge from-layer="1650" from-port="0" to-layer="1653" to-port="2"/>
		<edge from-layer="1651" from-port="0" to-layer="1653" to-port="3"/>
		<edge from-layer="1652" from-port="0" to-layer="1653" to-port="4"/>
		<edge from-layer="1654" from-port="0" to-layer="1655" to-port="0"/>
		<edge from-layer="1655" from-port="1" to-layer="1657" to-port="0"/>
		<edge from-layer="1656" from-port="0" to-layer="1657" to-port="1"/>
		<edge from-layer="1657" from-port="2" to-layer="1659" to-port="0"/>
		<edge from-layer="1658" from-port="0" to-layer="1659" to-port="1"/>
		<edge from-layer="1659" from-port="2" to-layer="1661" to-port="0"/>
		<edge from-layer="1660" from-port="0" to-layer="1661" to-port="1"/>
		<edge from-layer="1653" from-port="5" to-layer="1662" to-port="0"/>
		<edge from-layer="1661" from-port="2" to-layer="1662" to-port="1"/>
		<edge from-layer="1662" from-port="2" to-layer="1664" to-port="0"/>
		<edge from-layer="1663" from-port="0" to-layer="1664" to-port="1"/>
		<edge from-layer="1664" from-port="2" to-layer="1666" to-port="0"/>
		<edge from-layer="1665" from-port="0" to-layer="1666" to-port="1"/>
		<edge from-layer="1666" from-port="2" to-layer="1671" to-port="0"/>
		<edge from-layer="1667" from-port="0" to-layer="1671" to-port="1"/>
		<edge from-layer="1668" from-port="0" to-layer="1671" to-port="2"/>
		<edge from-layer="1669" from-port="0" to-layer="1671" to-port="3"/>
		<edge from-layer="1670" from-port="0" to-layer="1671" to-port="4"/>
		<edge from-layer="1672" from-port="0" to-layer="1673" to-port="0"/>
		<edge from-layer="1673" from-port="1" to-layer="1675" to-port="0"/>
		<edge from-layer="1674" from-port="0" to-layer="1675" to-port="1"/>
		<edge from-layer="1675" from-port="2" to-layer="1677" to-port="0"/>
		<edge from-layer="1676" from-port="0" to-layer="1677" to-port="1"/>
		<edge from-layer="1671" from-port="5" to-layer="1678" to-port="0"/>
		<edge from-layer="1677" from-port="2" to-layer="1678" to-port="1"/>
		<edge from-layer="1678" from-port="2" to-layer="1680" to-port="0"/>
		<edge from-layer="1679" from-port="0" to-layer="1680" to-port="1"/>
		<edge from-layer="1680" from-port="2" to-layer="1685" to-port="0"/>
		<edge from-layer="1681" from-port="0" to-layer="1685" to-port="1"/>
		<edge from-layer="1682" from-port="0" to-layer="1685" to-port="2"/>
		<edge from-layer="1683" from-port="0" to-layer="1685" to-port="3"/>
		<edge from-layer="1684" from-port="0" to-layer="1685" to-port="4"/>
		<edge from-layer="1637" from-port="5" to-layer="1686" to-port="0"/>
		<edge from-layer="1685" from-port="5" to-layer="1686" to-port="1"/>
		<edge from-layer="1686" from-port="2" to-layer="1688" to-port="0"/>
		<edge from-layer="1687" from-port="0" to-layer="1688" to-port="1"/>
		<edge from-layer="1688" from-port="2" to-layer="1693" to-port="0"/>
		<edge from-layer="1689" from-port="0" to-layer="1693" to-port="1"/>
		<edge from-layer="1690" from-port="0" to-layer="1693" to-port="2"/>
		<edge from-layer="1691" from-port="0" to-layer="1693" to-port="3"/>
		<edge from-layer="1692" from-port="0" to-layer="1693" to-port="4"/>
		<edge from-layer="1694" from-port="0" to-layer="1695" to-port="0"/>
		<edge from-layer="1695" from-port="1" to-layer="1697" to-port="0"/>
		<edge from-layer="1696" from-port="0" to-layer="1697" to-port="1"/>
		<edge from-layer="1697" from-port="2" to-layer="1699" to-port="0"/>
		<edge from-layer="1698" from-port="0" to-layer="1699" to-port="1"/>
		<edge from-layer="1693" from-port="5" to-layer="1700" to-port="0"/>
		<edge from-layer="1699" from-port="2" to-layer="1700" to-port="1"/>
		<edge from-layer="1700" from-port="2" to-layer="1702" to-port="0"/>
		<edge from-layer="1701" from-port="0" to-layer="1702" to-port="1"/>
		<edge from-layer="1702" from-port="2" to-layer="1704" to-port="0"/>
		<edge from-layer="1703" from-port="0" to-layer="1704" to-port="1"/>
		<edge from-layer="1704" from-port="2" to-layer="1709" to-port="0"/>
		<edge from-layer="1705" from-port="0" to-layer="1709" to-port="1"/>
		<edge from-layer="1706" from-port="0" to-layer="1709" to-port="2"/>
		<edge from-layer="1707" from-port="0" to-layer="1709" to-port="3"/>
		<edge from-layer="1708" from-port="0" to-layer="1709" to-port="4"/>
		<edge from-layer="1710" from-port="0" to-layer="1711" to-port="0"/>
		<edge from-layer="1711" from-port="1" to-layer="1713" to-port="0"/>
		<edge from-layer="1712" from-port="0" to-layer="1713" to-port="1"/>
		<edge from-layer="1713" from-port="2" to-layer="1715" to-port="0"/>
		<edge from-layer="1714" from-port="0" to-layer="1715" to-port="1"/>
		<edge from-layer="1715" from-port="2" to-layer="1717" to-port="0"/>
		<edge from-layer="1716" from-port="0" to-layer="1717" to-port="1"/>
		<edge from-layer="1709" from-port="5" to-layer="1718" to-port="0"/>
		<edge from-layer="1717" from-port="2" to-layer="1718" to-port="1"/>
		<edge from-layer="1718" from-port="2" to-layer="1720" to-port="0"/>
		<edge from-layer="1719" from-port="0" to-layer="1720" to-port="1"/>
		<edge from-layer="1720" from-port="2" to-layer="1722" to-port="0"/>
		<edge from-layer="1721" from-port="0" to-layer="1722" to-port="1"/>
		<edge from-layer="1722" from-port="2" to-layer="1727" to-port="0"/>
		<edge from-layer="1723" from-port="0" to-layer="1727" to-port="1"/>
		<edge from-layer="1724" from-port="0" to-layer="1727" to-port="2"/>
		<edge from-layer="1725" from-port="0" to-layer="1727" to-port="3"/>
		<edge from-layer="1726" from-port="0" to-layer="1727" to-port="4"/>
		<edge from-layer="1728" from-port="0" to-layer="1729" to-port="0"/>
		<edge from-layer="1729" from-port="1" to-layer="1731" to-port="0"/>
		<edge from-layer="1730" from-port="0" to-layer="1731" to-port="1"/>
		<edge from-layer="1731" from-port="2" to-layer="1733" to-port="0"/>
		<edge from-layer="1732" from-port="0" to-layer="1733" to-port="1"/>
		<edge from-layer="1727" from-port="5" to-layer="1734" to-port="0"/>
		<edge from-layer="1733" from-port="2" to-layer="1734" to-port="1"/>
		<edge from-layer="1734" from-port="2" to-layer="1736" to-port="0"/>
		<edge from-layer="1735" from-port="0" to-layer="1736" to-port="1"/>
		<edge from-layer="1736" from-port="2" to-layer="1741" to-port="0"/>
		<edge from-layer="1737" from-port="0" to-layer="1741" to-port="1"/>
		<edge from-layer="1738" from-port="0" to-layer="1741" to-port="2"/>
		<edge from-layer="1739" from-port="0" to-layer="1741" to-port="3"/>
		<edge from-layer="1740" from-port="0" to-layer="1741" to-port="4"/>
		<edge from-layer="1693" from-port="5" to-layer="1742" to-port="0"/>
		<edge from-layer="1741" from-port="5" to-layer="1742" to-port="1"/>
		<edge from-layer="1742" from-port="2" to-layer="1744" to-port="0"/>
		<edge from-layer="1743" from-port="0" to-layer="1744" to-port="1"/>
		<edge from-layer="1744" from-port="2" to-layer="1749" to-port="0"/>
		<edge from-layer="1745" from-port="0" to-layer="1749" to-port="1"/>
		<edge from-layer="1746" from-port="0" to-layer="1749" to-port="2"/>
		<edge from-layer="1747" from-port="0" to-layer="1749" to-port="3"/>
		<edge from-layer="1748" from-port="0" to-layer="1749" to-port="4"/>
		<edge from-layer="1750" from-port="0" to-layer="1751" to-port="0"/>
		<edge from-layer="1751" from-port="1" to-layer="1753" to-port="0"/>
		<edge from-layer="1752" from-port="0" to-layer="1753" to-port="1"/>
		<edge from-layer="1753" from-port="2" to-layer="1755" to-port="0"/>
		<edge from-layer="1754" from-port="0" to-layer="1755" to-port="1"/>
		<edge from-layer="1749" from-port="5" to-layer="1756" to-port="0"/>
		<edge from-layer="1755" from-port="2" to-layer="1756" to-port="1"/>
		<edge from-layer="1756" from-port="2" to-layer="1758" to-port="0"/>
		<edge from-layer="1757" from-port="0" to-layer="1758" to-port="1"/>
		<edge from-layer="1758" from-port="2" to-layer="1760" to-port="0"/>
		<edge from-layer="1759" from-port="0" to-layer="1760" to-port="1"/>
		<edge from-layer="1760" from-port="2" to-layer="1765" to-port="0"/>
		<edge from-layer="1761" from-port="0" to-layer="1765" to-port="1"/>
		<edge from-layer="1762" from-port="0" to-layer="1765" to-port="2"/>
		<edge from-layer="1763" from-port="0" to-layer="1765" to-port="3"/>
		<edge from-layer="1764" from-port="0" to-layer="1765" to-port="4"/>
		<edge from-layer="1766" from-port="0" to-layer="1767" to-port="0"/>
		<edge from-layer="1767" from-port="1" to-layer="1769" to-port="0"/>
		<edge from-layer="1768" from-port="0" to-layer="1769" to-port="1"/>
		<edge from-layer="1769" from-port="2" to-layer="1771" to-port="0"/>
		<edge from-layer="1770" from-port="0" to-layer="1771" to-port="1"/>
		<edge from-layer="1771" from-port="2" to-layer="1773" to-port="0"/>
		<edge from-layer="1772" from-port="0" to-layer="1773" to-port="1"/>
		<edge from-layer="1765" from-port="5" to-layer="1774" to-port="0"/>
		<edge from-layer="1773" from-port="2" to-layer="1774" to-port="1"/>
		<edge from-layer="1774" from-port="2" to-layer="1776" to-port="0"/>
		<edge from-layer="1775" from-port="0" to-layer="1776" to-port="1"/>
		<edge from-layer="1776" from-port="2" to-layer="1778" to-port="0"/>
		<edge from-layer="1777" from-port="0" to-layer="1778" to-port="1"/>
		<edge from-layer="1778" from-port="2" to-layer="1783" to-port="0"/>
		<edge from-layer="1779" from-port="0" to-layer="1783" to-port="1"/>
		<edge from-layer="1780" from-port="0" to-layer="1783" to-port="2"/>
		<edge from-layer="1781" from-port="0" to-layer="1783" to-port="3"/>
		<edge from-layer="1782" from-port="0" to-layer="1783" to-port="4"/>
		<edge from-layer="1784" from-port="0" to-layer="1785" to-port="0"/>
		<edge from-layer="1785" from-port="1" to-layer="1787" to-port="0"/>
		<edge from-layer="1786" from-port="0" to-layer="1787" to-port="1"/>
		<edge from-layer="1787" from-port="2" to-layer="1789" to-port="0"/>
		<edge from-layer="1788" from-port="0" to-layer="1789" to-port="1"/>
		<edge from-layer="1783" from-port="5" to-layer="1790" to-port="0"/>
		<edge from-layer="1789" from-port="2" to-layer="1790" to-port="1"/>
		<edge from-layer="1790" from-port="2" to-layer="1792" to-port="0"/>
		<edge from-layer="1791" from-port="0" to-layer="1792" to-port="1"/>
		<edge from-layer="1792" from-port="2" to-layer="1797" to-port="0"/>
		<edge from-layer="1793" from-port="0" to-layer="1797" to-port="1"/>
		<edge from-layer="1794" from-port="0" to-layer="1797" to-port="2"/>
		<edge from-layer="1795" from-port="0" to-layer="1797" to-port="3"/>
		<edge from-layer="1796" from-port="0" to-layer="1797" to-port="4"/>
		<edge from-layer="1749" from-port="5" to-layer="1798" to-port="0"/>
		<edge from-layer="1797" from-port="5" to-layer="1798" to-port="1"/>
		<edge from-layer="1798" from-port="2" to-layer="1800" to-port="0"/>
		<edge from-layer="1799" from-port="0" to-layer="1800" to-port="1"/>
		<edge from-layer="1800" from-port="2" to-layer="1805" to-port="0"/>
		<edge from-layer="1801" from-port="0" to-layer="1805" to-port="1"/>
		<edge from-layer="1802" from-port="0" to-layer="1805" to-port="2"/>
		<edge from-layer="1803" from-port="0" to-layer="1805" to-port="3"/>
		<edge from-layer="1804" from-port="0" to-layer="1805" to-port="4"/>
		<edge from-layer="1806" from-port="0" to-layer="1807" to-port="0"/>
		<edge from-layer="1807" from-port="1" to-layer="1809" to-port="0"/>
		<edge from-layer="1808" from-port="0" to-layer="1809" to-port="1"/>
		<edge from-layer="1809" from-port="2" to-layer="1811" to-port="0"/>
		<edge from-layer="1810" from-port="0" to-layer="1811" to-port="1"/>
		<edge from-layer="1805" from-port="5" to-layer="1812" to-port="0"/>
		<edge from-layer="1811" from-port="2" to-layer="1812" to-port="1"/>
		<edge from-layer="1812" from-port="2" to-layer="1814" to-port="0"/>
		<edge from-layer="1813" from-port="0" to-layer="1814" to-port="1"/>
		<edge from-layer="1814" from-port="2" to-layer="1816" to-port="0"/>
		<edge from-layer="1815" from-port="0" to-layer="1816" to-port="1"/>
		<edge from-layer="1816" from-port="2" to-layer="1821" to-port="0"/>
		<edge from-layer="1817" from-port="0" to-layer="1821" to-port="1"/>
		<edge from-layer="1818" from-port="0" to-layer="1821" to-port="2"/>
		<edge from-layer="1819" from-port="0" to-layer="1821" to-port="3"/>
		<edge from-layer="1820" from-port="0" to-layer="1821" to-port="4"/>
		<edge from-layer="1822" from-port="0" to-layer="1823" to-port="0"/>
		<edge from-layer="1823" from-port="1" to-layer="1825" to-port="0"/>
		<edge from-layer="1824" from-port="0" to-layer="1825" to-port="1"/>
		<edge from-layer="1825" from-port="2" to-layer="1827" to-port="0"/>
		<edge from-layer="1826" from-port="0" to-layer="1827" to-port="1"/>
		<edge from-layer="1827" from-port="2" to-layer="1829" to-port="0"/>
		<edge from-layer="1828" from-port="0" to-layer="1829" to-port="1"/>
		<edge from-layer="1821" from-port="5" to-layer="1830" to-port="0"/>
		<edge from-layer="1829" from-port="2" to-layer="1830" to-port="1"/>
		<edge from-layer="1830" from-port="2" to-layer="1832" to-port="0"/>
		<edge from-layer="1831" from-port="0" to-layer="1832" to-port="1"/>
		<edge from-layer="1832" from-port="2" to-layer="1834" to-port="0"/>
		<edge from-layer="1833" from-port="0" to-layer="1834" to-port="1"/>
		<edge from-layer="1834" from-port="2" to-layer="1839" to-port="0"/>
		<edge from-layer="1835" from-port="0" to-layer="1839" to-port="1"/>
		<edge from-layer="1836" from-port="0" to-layer="1839" to-port="2"/>
		<edge from-layer="1837" from-port="0" to-layer="1839" to-port="3"/>
		<edge from-layer="1838" from-port="0" to-layer="1839" to-port="4"/>
		<edge from-layer="1840" from-port="0" to-layer="1841" to-port="0"/>
		<edge from-layer="1841" from-port="1" to-layer="1843" to-port="0"/>
		<edge from-layer="1842" from-port="0" to-layer="1843" to-port="1"/>
		<edge from-layer="1843" from-port="2" to-layer="1845" to-port="0"/>
		<edge from-layer="1844" from-port="0" to-layer="1845" to-port="1"/>
		<edge from-layer="1839" from-port="5" to-layer="1846" to-port="0"/>
		<edge from-layer="1845" from-port="2" to-layer="1846" to-port="1"/>
		<edge from-layer="1846" from-port="2" to-layer="1848" to-port="0"/>
		<edge from-layer="1847" from-port="0" to-layer="1848" to-port="1"/>
		<edge from-layer="1848" from-port="2" to-layer="1853" to-port="0"/>
		<edge from-layer="1849" from-port="0" to-layer="1853" to-port="1"/>
		<edge from-layer="1850" from-port="0" to-layer="1853" to-port="2"/>
		<edge from-layer="1851" from-port="0" to-layer="1853" to-port="3"/>
		<edge from-layer="1852" from-port="0" to-layer="1853" to-port="4"/>
		<edge from-layer="1805" from-port="5" to-layer="1854" to-port="0"/>
		<edge from-layer="1853" from-port="5" to-layer="1854" to-port="1"/>
		<edge from-layer="1854" from-port="2" to-layer="1856" to-port="0"/>
		<edge from-layer="1855" from-port="0" to-layer="1856" to-port="1"/>
		<edge from-layer="1856" from-port="2" to-layer="1861" to-port="0"/>
		<edge from-layer="1857" from-port="0" to-layer="1861" to-port="1"/>
		<edge from-layer="1858" from-port="0" to-layer="1861" to-port="2"/>
		<edge from-layer="1859" from-port="0" to-layer="1861" to-port="3"/>
		<edge from-layer="1860" from-port="0" to-layer="1861" to-port="4"/>
		<edge from-layer="1862" from-port="0" to-layer="1863" to-port="0"/>
		<edge from-layer="1863" from-port="1" to-layer="1865" to-port="0"/>
		<edge from-layer="1864" from-port="0" to-layer="1865" to-port="1"/>
		<edge from-layer="1865" from-port="2" to-layer="1867" to-port="0"/>
		<edge from-layer="1866" from-port="0" to-layer="1867" to-port="1"/>
		<edge from-layer="1861" from-port="5" to-layer="1868" to-port="0"/>
		<edge from-layer="1867" from-port="2" to-layer="1868" to-port="1"/>
		<edge from-layer="1868" from-port="2" to-layer="1870" to-port="0"/>
		<edge from-layer="1869" from-port="0" to-layer="1870" to-port="1"/>
		<edge from-layer="1870" from-port="2" to-layer="1872" to-port="0"/>
		<edge from-layer="1871" from-port="0" to-layer="1872" to-port="1"/>
		<edge from-layer="1872" from-port="2" to-layer="1877" to-port="0"/>
		<edge from-layer="1873" from-port="0" to-layer="1877" to-port="1"/>
		<edge from-layer="1874" from-port="0" to-layer="1877" to-port="2"/>
		<edge from-layer="1875" from-port="0" to-layer="1877" to-port="3"/>
		<edge from-layer="1876" from-port="0" to-layer="1877" to-port="4"/>
		<edge from-layer="1878" from-port="0" to-layer="1879" to-port="0"/>
		<edge from-layer="1879" from-port="1" to-layer="1881" to-port="0"/>
		<edge from-layer="1880" from-port="0" to-layer="1881" to-port="1"/>
		<edge from-layer="1881" from-port="2" to-layer="1883" to-port="0"/>
		<edge from-layer="1882" from-port="0" to-layer="1883" to-port="1"/>
		<edge from-layer="1883" from-port="2" to-layer="1885" to-port="0"/>
		<edge from-layer="1884" from-port="0" to-layer="1885" to-port="1"/>
		<edge from-layer="1877" from-port="5" to-layer="1886" to-port="0"/>
		<edge from-layer="1885" from-port="2" to-layer="1886" to-port="1"/>
		<edge from-layer="1886" from-port="2" to-layer="1888" to-port="0"/>
		<edge from-layer="1887" from-port="0" to-layer="1888" to-port="1"/>
		<edge from-layer="1888" from-port="2" to-layer="1890" to-port="0"/>
		<edge from-layer="1889" from-port="0" to-layer="1890" to-port="1"/>
		<edge from-layer="1890" from-port="2" to-layer="1895" to-port="0"/>
		<edge from-layer="1891" from-port="0" to-layer="1895" to-port="1"/>
		<edge from-layer="1892" from-port="0" to-layer="1895" to-port="2"/>
		<edge from-layer="1893" from-port="0" to-layer="1895" to-port="3"/>
		<edge from-layer="1894" from-port="0" to-layer="1895" to-port="4"/>
		<edge from-layer="1896" from-port="0" to-layer="1897" to-port="0"/>
		<edge from-layer="1897" from-port="1" to-layer="1899" to-port="0"/>
		<edge from-layer="1898" from-port="0" to-layer="1899" to-port="1"/>
		<edge from-layer="1899" from-port="2" to-layer="1901" to-port="0"/>
		<edge from-layer="1900" from-port="0" to-layer="1901" to-port="1"/>
		<edge from-layer="1895" from-port="5" to-layer="1902" to-port="0"/>
		<edge from-layer="1901" from-port="2" to-layer="1902" to-port="1"/>
		<edge from-layer="1902" from-port="2" to-layer="1904" to-port="0"/>
		<edge from-layer="1903" from-port="0" to-layer="1904" to-port="1"/>
		<edge from-layer="1904" from-port="2" to-layer="1909" to-port="0"/>
		<edge from-layer="1905" from-port="0" to-layer="1909" to-port="1"/>
		<edge from-layer="1906" from-port="0" to-layer="1909" to-port="2"/>
		<edge from-layer="1907" from-port="0" to-layer="1909" to-port="3"/>
		<edge from-layer="1908" from-port="0" to-layer="1909" to-port="4"/>
		<edge from-layer="1861" from-port="5" to-layer="1910" to-port="0"/>
		<edge from-layer="1909" from-port="5" to-layer="1910" to-port="1"/>
		<edge from-layer="1910" from-port="2" to-layer="1912" to-port="0"/>
		<edge from-layer="1911" from-port="0" to-layer="1912" to-port="1"/>
		<edge from-layer="1912" from-port="2" to-layer="1917" to-port="0"/>
		<edge from-layer="1913" from-port="0" to-layer="1917" to-port="1"/>
		<edge from-layer="1914" from-port="0" to-layer="1917" to-port="2"/>
		<edge from-layer="1915" from-port="0" to-layer="1917" to-port="3"/>
		<edge from-layer="1916" from-port="0" to-layer="1917" to-port="4"/>
		<edge from-layer="1918" from-port="0" to-layer="1919" to-port="0"/>
		<edge from-layer="1919" from-port="1" to-layer="1921" to-port="0"/>
		<edge from-layer="1920" from-port="0" to-layer="1921" to-port="1"/>
		<edge from-layer="1921" from-port="2" to-layer="1923" to-port="0"/>
		<edge from-layer="1922" from-port="0" to-layer="1923" to-port="1"/>
		<edge from-layer="1917" from-port="5" to-layer="1924" to-port="0"/>
		<edge from-layer="1923" from-port="2" to-layer="1924" to-port="1"/>
		<edge from-layer="1924" from-port="2" to-layer="1926" to-port="0"/>
		<edge from-layer="1925" from-port="0" to-layer="1926" to-port="1"/>
		<edge from-layer="1926" from-port="2" to-layer="1928" to-port="0"/>
		<edge from-layer="1927" from-port="0" to-layer="1928" to-port="1"/>
		<edge from-layer="1928" from-port="2" to-layer="1933" to-port="0"/>
		<edge from-layer="1929" from-port="0" to-layer="1933" to-port="1"/>
		<edge from-layer="1930" from-port="0" to-layer="1933" to-port="2"/>
		<edge from-layer="1931" from-port="0" to-layer="1933" to-port="3"/>
		<edge from-layer="1932" from-port="0" to-layer="1933" to-port="4"/>
		<edge from-layer="1934" from-port="0" to-layer="1935" to-port="0"/>
		<edge from-layer="1935" from-port="1" to-layer="1937" to-port="0"/>
		<edge from-layer="1936" from-port="0" to-layer="1937" to-port="1"/>
		<edge from-layer="1937" from-port="2" to-layer="1939" to-port="0"/>
		<edge from-layer="1938" from-port="0" to-layer="1939" to-port="1"/>
		<edge from-layer="1939" from-port="2" to-layer="1941" to-port="0"/>
		<edge from-layer="1940" from-port="0" to-layer="1941" to-port="1"/>
		<edge from-layer="1933" from-port="5" to-layer="1942" to-port="0"/>
		<edge from-layer="1941" from-port="2" to-layer="1942" to-port="1"/>
		<edge from-layer="1942" from-port="2" to-layer="1944" to-port="0"/>
		<edge from-layer="1943" from-port="0" to-layer="1944" to-port="1"/>
		<edge from-layer="1944" from-port="2" to-layer="1946" to-port="0"/>
		<edge from-layer="1945" from-port="0" to-layer="1946" to-port="1"/>
		<edge from-layer="1946" from-port="2" to-layer="1951" to-port="0"/>
		<edge from-layer="1947" from-port="0" to-layer="1951" to-port="1"/>
		<edge from-layer="1948" from-port="0" to-layer="1951" to-port="2"/>
		<edge from-layer="1949" from-port="0" to-layer="1951" to-port="3"/>
		<edge from-layer="1950" from-port="0" to-layer="1951" to-port="4"/>
		<edge from-layer="1952" from-port="0" to-layer="1953" to-port="0"/>
		<edge from-layer="1953" from-port="1" to-layer="1955" to-port="0"/>
		<edge from-layer="1954" from-port="0" to-layer="1955" to-port="1"/>
		<edge from-layer="1955" from-port="2" to-layer="1957" to-port="0"/>
		<edge from-layer="1956" from-port="0" to-layer="1957" to-port="1"/>
		<edge from-layer="1951" from-port="5" to-layer="1958" to-port="0"/>
		<edge from-layer="1957" from-port="2" to-layer="1958" to-port="1"/>
		<edge from-layer="1958" from-port="2" to-layer="1960" to-port="0"/>
		<edge from-layer="1959" from-port="0" to-layer="1960" to-port="1"/>
		<edge from-layer="1960" from-port="2" to-layer="1965" to-port="0"/>
		<edge from-layer="1961" from-port="0" to-layer="1965" to-port="1"/>
		<edge from-layer="1962" from-port="0" to-layer="1965" to-port="2"/>
		<edge from-layer="1963" from-port="0" to-layer="1965" to-port="3"/>
		<edge from-layer="1964" from-port="0" to-layer="1965" to-port="4"/>
		<edge from-layer="1917" from-port="5" to-layer="1966" to-port="0"/>
		<edge from-layer="1965" from-port="5" to-layer="1966" to-port="1"/>
		<edge from-layer="1966" from-port="2" to-layer="1968" to-port="0"/>
		<edge from-layer="1967" from-port="0" to-layer="1968" to-port="1"/>
		<edge from-layer="1968" from-port="2" to-layer="1973" to-port="0"/>
		<edge from-layer="1969" from-port="0" to-layer="1973" to-port="1"/>
		<edge from-layer="1970" from-port="0" to-layer="1973" to-port="2"/>
		<edge from-layer="1971" from-port="0" to-layer="1973" to-port="3"/>
		<edge from-layer="1972" from-port="0" to-layer="1973" to-port="4"/>
		<edge from-layer="1974" from-port="0" to-layer="1975" to-port="0"/>
		<edge from-layer="1975" from-port="1" to-layer="1977" to-port="0"/>
		<edge from-layer="1976" from-port="0" to-layer="1977" to-port="1"/>
		<edge from-layer="1977" from-port="2" to-layer="1979" to-port="0"/>
		<edge from-layer="1978" from-port="0" to-layer="1979" to-port="1"/>
		<edge from-layer="1973" from-port="5" to-layer="1980" to-port="0"/>
		<edge from-layer="1979" from-port="2" to-layer="1980" to-port="1"/>
		<edge from-layer="1980" from-port="2" to-layer="1982" to-port="0"/>
		<edge from-layer="1981" from-port="0" to-layer="1982" to-port="1"/>
		<edge from-layer="1982" from-port="2" to-layer="1984" to-port="0"/>
		<edge from-layer="1983" from-port="0" to-layer="1984" to-port="1"/>
		<edge from-layer="1984" from-port="2" to-layer="1989" to-port="0"/>
		<edge from-layer="1985" from-port="0" to-layer="1989" to-port="1"/>
		<edge from-layer="1986" from-port="0" to-layer="1989" to-port="2"/>
		<edge from-layer="1987" from-port="0" to-layer="1989" to-port="3"/>
		<edge from-layer="1988" from-port="0" to-layer="1989" to-port="4"/>
		<edge from-layer="1990" from-port="0" to-layer="1991" to-port="0"/>
		<edge from-layer="1991" from-port="1" to-layer="1993" to-port="0"/>
		<edge from-layer="1992" from-port="0" to-layer="1993" to-port="1"/>
		<edge from-layer="1993" from-port="2" to-layer="1995" to-port="0"/>
		<edge from-layer="1994" from-port="0" to-layer="1995" to-port="1"/>
		<edge from-layer="1995" from-port="2" to-layer="1997" to-port="0"/>
		<edge from-layer="1996" from-port="0" to-layer="1997" to-port="1"/>
		<edge from-layer="1989" from-port="5" to-layer="1998" to-port="0"/>
		<edge from-layer="1997" from-port="2" to-layer="1998" to-port="1"/>
		<edge from-layer="1998" from-port="2" to-layer="2000" to-port="0"/>
		<edge from-layer="1999" from-port="0" to-layer="2000" to-port="1"/>
		<edge from-layer="2000" from-port="2" to-layer="2002" to-port="0"/>
		<edge from-layer="2001" from-port="0" to-layer="2002" to-port="1"/>
		<edge from-layer="2002" from-port="2" to-layer="2007" to-port="0"/>
		<edge from-layer="2003" from-port="0" to-layer="2007" to-port="1"/>
		<edge from-layer="2004" from-port="0" to-layer="2007" to-port="2"/>
		<edge from-layer="2005" from-port="0" to-layer="2007" to-port="3"/>
		<edge from-layer="2006" from-port="0" to-layer="2007" to-port="4"/>
		<edge from-layer="2008" from-port="0" to-layer="2009" to-port="0"/>
		<edge from-layer="2009" from-port="1" to-layer="2011" to-port="0"/>
		<edge from-layer="2010" from-port="0" to-layer="2011" to-port="1"/>
		<edge from-layer="2011" from-port="2" to-layer="2013" to-port="0"/>
		<edge from-layer="2012" from-port="0" to-layer="2013" to-port="1"/>
		<edge from-layer="2007" from-port="5" to-layer="2014" to-port="0"/>
		<edge from-layer="2013" from-port="2" to-layer="2014" to-port="1"/>
		<edge from-layer="2014" from-port="2" to-layer="2016" to-port="0"/>
		<edge from-layer="2015" from-port="0" to-layer="2016" to-port="1"/>
		<edge from-layer="2016" from-port="2" to-layer="2021" to-port="0"/>
		<edge from-layer="2017" from-port="0" to-layer="2021" to-port="1"/>
		<edge from-layer="2018" from-port="0" to-layer="2021" to-port="2"/>
		<edge from-layer="2019" from-port="0" to-layer="2021" to-port="3"/>
		<edge from-layer="2020" from-port="0" to-layer="2021" to-port="4"/>
		<edge from-layer="1973" from-port="5" to-layer="2022" to-port="0"/>
		<edge from-layer="2021" from-port="5" to-layer="2022" to-port="1"/>
		<edge from-layer="2022" from-port="2" to-layer="2024" to-port="0"/>
		<edge from-layer="2023" from-port="0" to-layer="2024" to-port="1"/>
		<edge from-layer="2024" from-port="2" to-layer="2029" to-port="0"/>
		<edge from-layer="2025" from-port="0" to-layer="2029" to-port="1"/>
		<edge from-layer="2026" from-port="0" to-layer="2029" to-port="2"/>
		<edge from-layer="2027" from-port="0" to-layer="2029" to-port="3"/>
		<edge from-layer="2028" from-port="0" to-layer="2029" to-port="4"/>
		<edge from-layer="2030" from-port="0" to-layer="2031" to-port="0"/>
		<edge from-layer="2031" from-port="1" to-layer="2033" to-port="0"/>
		<edge from-layer="2032" from-port="0" to-layer="2033" to-port="1"/>
		<edge from-layer="2033" from-port="2" to-layer="2035" to-port="0"/>
		<edge from-layer="2034" from-port="0" to-layer="2035" to-port="1"/>
		<edge from-layer="2029" from-port="5" to-layer="2036" to-port="0"/>
		<edge from-layer="2035" from-port="2" to-layer="2036" to-port="1"/>
		<edge from-layer="2036" from-port="2" to-layer="2038" to-port="0"/>
		<edge from-layer="2037" from-port="0" to-layer="2038" to-port="1"/>
		<edge from-layer="2038" from-port="2" to-layer="2040" to-port="0"/>
		<edge from-layer="2039" from-port="0" to-layer="2040" to-port="1"/>
		<edge from-layer="2040" from-port="2" to-layer="2045" to-port="0"/>
		<edge from-layer="2041" from-port="0" to-layer="2045" to-port="1"/>
		<edge from-layer="2042" from-port="0" to-layer="2045" to-port="2"/>
		<edge from-layer="2043" from-port="0" to-layer="2045" to-port="3"/>
		<edge from-layer="2044" from-port="0" to-layer="2045" to-port="4"/>
		<edge from-layer="2046" from-port="0" to-layer="2047" to-port="0"/>
		<edge from-layer="2047" from-port="1" to-layer="2049" to-port="0"/>
		<edge from-layer="2048" from-port="0" to-layer="2049" to-port="1"/>
		<edge from-layer="2049" from-port="2" to-layer="2051" to-port="0"/>
		<edge from-layer="2050" from-port="0" to-layer="2051" to-port="1"/>
		<edge from-layer="2051" from-port="2" to-layer="2053" to-port="0"/>
		<edge from-layer="2052" from-port="0" to-layer="2053" to-port="1"/>
		<edge from-layer="2045" from-port="5" to-layer="2054" to-port="0"/>
		<edge from-layer="2053" from-port="2" to-layer="2054" to-port="1"/>
		<edge from-layer="2054" from-port="2" to-layer="2056" to-port="0"/>
		<edge from-layer="2055" from-port="0" to-layer="2056" to-port="1"/>
		<edge from-layer="2056" from-port="2" to-layer="2058" to-port="0"/>
		<edge from-layer="2057" from-port="0" to-layer="2058" to-port="1"/>
		<edge from-layer="2058" from-port="2" to-layer="2063" to-port="0"/>
		<edge from-layer="2059" from-port="0" to-layer="2063" to-port="1"/>
		<edge from-layer="2060" from-port="0" to-layer="2063" to-port="2"/>
		<edge from-layer="2061" from-port="0" to-layer="2063" to-port="3"/>
		<edge from-layer="2062" from-port="0" to-layer="2063" to-port="4"/>
		<edge from-layer="2064" from-port="0" to-layer="2065" to-port="0"/>
		<edge from-layer="2065" from-port="1" to-layer="2067" to-port="0"/>
		<edge from-layer="2066" from-port="0" to-layer="2067" to-port="1"/>
		<edge from-layer="2067" from-port="2" to-layer="2069" to-port="0"/>
		<edge from-layer="2068" from-port="0" to-layer="2069" to-port="1"/>
		<edge from-layer="2063" from-port="5" to-layer="2070" to-port="0"/>
		<edge from-layer="2069" from-port="2" to-layer="2070" to-port="1"/>
		<edge from-layer="2070" from-port="2" to-layer="2072" to-port="0"/>
		<edge from-layer="2071" from-port="0" to-layer="2072" to-port="1"/>
		<edge from-layer="2072" from-port="2" to-layer="2077" to-port="0"/>
		<edge from-layer="2073" from-port="0" to-layer="2077" to-port="1"/>
		<edge from-layer="2074" from-port="0" to-layer="2077" to-port="2"/>
		<edge from-layer="2075" from-port="0" to-layer="2077" to-port="3"/>
		<edge from-layer="2076" from-port="0" to-layer="2077" to-port="4"/>
		<edge from-layer="2029" from-port="5" to-layer="2078" to-port="0"/>
		<edge from-layer="2077" from-port="5" to-layer="2078" to-port="1"/>
		<edge from-layer="2078" from-port="2" to-layer="2080" to-port="0"/>
		<edge from-layer="2079" from-port="0" to-layer="2080" to-port="1"/>
		<edge from-layer="2080" from-port="2" to-layer="2085" to-port="0"/>
		<edge from-layer="2081" from-port="0" to-layer="2085" to-port="1"/>
		<edge from-layer="2082" from-port="0" to-layer="2085" to-port="2"/>
		<edge from-layer="2083" from-port="0" to-layer="2085" to-port="3"/>
		<edge from-layer="2084" from-port="0" to-layer="2085" to-port="4"/>
		<edge from-layer="2086" from-port="0" to-layer="2087" to-port="0"/>
		<edge from-layer="2087" from-port="1" to-layer="2089" to-port="0"/>
		<edge from-layer="2088" from-port="0" to-layer="2089" to-port="1"/>
		<edge from-layer="2089" from-port="2" to-layer="2091" to-port="0"/>
		<edge from-layer="2090" from-port="0" to-layer="2091" to-port="1"/>
		<edge from-layer="2085" from-port="5" to-layer="2092" to-port="0"/>
		<edge from-layer="2091" from-port="2" to-layer="2092" to-port="1"/>
		<edge from-layer="2092" from-port="2" to-layer="2094" to-port="0"/>
		<edge from-layer="2093" from-port="0" to-layer="2094" to-port="1"/>
		<edge from-layer="2094" from-port="2" to-layer="2096" to-port="0"/>
		<edge from-layer="2095" from-port="0" to-layer="2096" to-port="1"/>
		<edge from-layer="2096" from-port="2" to-layer="2098" to-port="0"/>
		<edge from-layer="2097" from-port="0" to-layer="2098" to-port="1"/>
		<edge from-layer="2099" from-port="0" to-layer="2100" to-port="0"/>
		<edge from-layer="2100" from-port="1" to-layer="2102" to-port="0"/>
		<edge from-layer="2101" from-port="0" to-layer="2102" to-port="1"/>
		<edge from-layer="2102" from-port="2" to-layer="2104" to-port="0"/>
		<edge from-layer="2103" from-port="0" to-layer="2104" to-port="1"/>
		<edge from-layer="2085" from-port="5" to-layer="2105" to-port="0"/>
		<edge from-layer="2104" from-port="2" to-layer="2105" to-port="1"/>
		<edge from-layer="2105" from-port="2" to-layer="2107" to-port="0"/>
		<edge from-layer="2106" from-port="0" to-layer="2107" to-port="1"/>
		<edge from-layer="2107" from-port="2" to-layer="2109" to-port="0"/>
		<edge from-layer="2108" from-port="0" to-layer="2109" to-port="1"/>
		<edge from-layer="2109" from-port="2" to-layer="2111" to-port="0"/>
		<edge from-layer="2110" from-port="0" to-layer="2111" to-port="1"/>
		<edge from-layer="2111" from-port="2" to-layer="2113" to-port="0"/>
		<edge from-layer="2112" from-port="0" to-layer="2113" to-port="1"/>
		<edge from-layer="2113" from-port="2" to-layer="2114" to-port="0"/>
		<edge from-layer="2114" from-port="1" to-layer="2116" to-port="0"/>
		<edge from-layer="2115" from-port="0" to-layer="2116" to-port="1"/>
		<edge from-layer="2080" from-port="2" to-layer="2117" to-port="0"/>
		<edge from-layer="2117" from-port="1" to-layer="2121" to-port="0"/>
		<edge from-layer="2118" from-port="0" to-layer="2121" to-port="1"/>
		<edge from-layer="2119" from-port="0" to-layer="2121" to-port="2"/>
		<edge from-layer="2120" from-port="0" to-layer="2121" to-port="3"/>
		<edge from-layer="0" from-port="0" to-layer="2122" to-port="0"/>
		<edge from-layer="2122" from-port="1" to-layer="2126" to-port="0"/>
		<edge from-layer="2123" from-port="0" to-layer="2126" to-port="1"/>
		<edge from-layer="2124" from-port="0" to-layer="2126" to-port="2"/>
		<edge from-layer="2125" from-port="0" to-layer="2126" to-port="3"/>
		<edge from-layer="2121" from-port="4" to-layer="2127" to-port="0"/>
		<edge from-layer="2126" from-port="4" to-layer="2127" to-port="1"/>
		<edge from-layer="2127" from-port="2" to-layer="2129" to-port="0"/>
		<edge from-layer="2128" from-port="0" to-layer="2129" to-port="1"/>
		<edge from-layer="2098" from-port="2" to-layer="2130" to-port="0"/>
		<edge from-layer="2116" from-port="2" to-layer="2130" to-port="1"/>
		<edge from-layer="2129" from-port="2" to-layer="2130" to-port="2"/>
		<edge from-layer="2130" from-port="3" to-layer="2131" to-port="0"/>
	</edges>
	<meta_data>
		<MO_version value="unknown version"/>
		<cli_parameters>
			<caffe_parser_path value="DIR"/>
			<data_type value="FP16"/>
			<disable_nhwc_to_nchw value="False"/>
			<disable_omitting_optional value="False"/>
			<disable_resnet_optimization value="False"/>
			<disable_weights_compression value="False"/>
			<enable_concat_optimization value="False"/>
			<enable_flattening_nested_params value="False"/>
			<enable_ssd_gluoncv value="False"/>
			<extensions value="DIR"/>
			<framework value="caffe"/>
			<freeze_placeholder_with_value value="{}"/>
			<generate_deprecated_IR_V7 value="False"/>
			<input value="data"/>
			<input_model value="DIR/rmnet_lrelu_pd_ssd.caffemodel"/>
			<input_model_is_text value="False"/>
			<input_proto value="DIR/rmnet_lrelu_pd_ssd.prototxt"/>
			<input_shape value="[1,3,320,544]"/>
			<k value="DIR/CustomLayersMapping.xml"/>
			<keep_shape_ops value="True"/>
			<legacy_mxnet_model value="False"/>
			<log_level value="ERROR"/>
			<mean_scale_values value="{}"/>
			<mean_values value="()"/>
			<model_name value="person-detection-retail-0013"/>
			<output value="['detection_out']"/>
			<output_dir value="DIR"/>
			<placeholder_data_types value="{}"/>
			<placeholder_shapes value="{'data': array([  1,   3, 320, 544])}"/>
			<progress value="False"/>
			<remove_memory value="False"/>
			<remove_output_softmax value="False"/>
			<reverse_input_channels value="False"/>
			<save_params_from_nd value="False"/>
			<scale_values value="()"/>
			<silent value="False"/>
			<static_shape value="False"/>
			<stream_output value="False"/>
			<unset unset_cli_parameters="batch, counts, disable_fusing, disable_gfusing, finegrain_fusing, input_checkpoint, input_meta_graph, input_symbol, mean_file, mean_file_offsets, move_to_preprocess, nd_prefix_name, pretrained_model_name, saved_model_dir, saved_model_tags, scale, tensorboard_logdir, tensorflow_custom_layer_libraries, tensorflow_custom_operations_config_update, tensorflow_object_detection_api_pipeline_config, tensorflow_use_custom_operations_config, transformations_config"/>
		</cli_parameters>
	</meta_data>
	<quantization_parameters>
		<config>{
		'compression': {
			'algorithms': [
				{
					'name': 'DefaultQuantization',
					'params': {
						'num_samples_for_tuning': 2000,
						'preset': 'performance',
						'stat_subset_size': 300,
						'use_layerwise_tuning': false
					}
				}
			],
			'dump_intermediate_model': true,
			'target_device': 'ANY'
		},
		'engine': {
			'models': [
				{
					'name': 'person-detection-retail-0013',
					'launchers': [
						{
							'framework': 'dlsdk',
							'adapter': 'ssd',
							'device': 'CPU'
						}
					],
					'datasets': [
						{
							'name': 'person_detection',
							'data_source': 'PATH',
							'annotation_conversion': {
								'converter': 'datatang_street_subway',
								'annotation_file': 'PATH'
							},
							'annotation': 'datatang_street_subway.pickle',
							'dataset_meta': 'datatang_street_subway.json',
							'preprocessing': [
								{
									'type': 'resize',
									'dst_width': 544,
									'dst_height': 320
								}
							],
							'postprocessing': [
								{
									'type': 'resize_prediction_boxes'
								},
								{
									'type': 'filter',
									'apply_to': 'annotation',
									'height_range': 100,
									'aspect_ratio': '0.666, 5',
									'is_empty': true,
									'min_visibility': 'partially occluded'
								},
								{
									'type': 'filter',
									'apply_to': 'prediction',
									'height_range': 100,
									'is_empty': true,
									'aspect_ratio': '0.666, 5'
								}
							],
							'metrics': [
								{
									'type': 'map',
									'ignore_difficult': true,
									'include_boundaries': true,
									'allow_multiple_matches_per_ignored': false,
									'distinct_conf': false
								}
							],
							'_command_line_mapping': {
								'annotation_file': 'PATH'
							}
						}
					]
				}
			],
			'stat_requests_number': null,
			'eval_requests_number': null,
			'type': 'accuracy_checker'
		}
	}</config>
		<version value="1.0"/>
		<cli_params value="{'evaluate': False, 'output_dir': 'PATH', 'direct_dump': True, 'log_level': 'INFO', 'pbar': False, 'stream_output': False, 'keep_uncompressed_weights': False}"/>
	</quantization_parameters>
</net>
